code/CAV_OBJECT__DETECTION/distance_model_checkpoint_no_class0.pth (torch, 29010 bytes, 30 tensors)

class_embedding.weight f4 [25, 8]
00000000: 8e84 19bf 9700 dd3e 6917 8bbf b81e 8d3d
00000010: cd3c 16be 98df c2bf 92b1 ab3f 72a4 03bf
00000020: b7cf 493f 3c0e 1cbc bcf8 7238 b7b2 ee38
00000030: f161 0f3e 9645 39b9 dbad 543b 0132 58bc
00000040: 03cd 493f a74b f7bb 875a 713a da86 edb9
00000050: 1acd 103e 0983 76ba c37a 363b 0709 45bc
00000060: bf2e 4a3f f440 00bc 4fb4 5cba f8c3 9db7
00000070: 7d5c 0d3e 4574 703a 944b 023b b052 9bbc
00000080: a1a8 bebe 1b5e 53bf 18b9 01b9 d269 9938
00000090: bd7d 033e 5c69 06b9 6d69 8839 dc3d 003a
000000a0: e64d cfbe 71c4 4abd 53d8 a4b8 9909 e638
000000b0: e8db 04bf 3b62 b538 1828 223d 28cb 62be
000000c0: 491b c43d 9e9a a9bd faf2 9ab9 3fd7 343f
000000d0: 95b4 a83c b83c 5039 6f57 68bc bc0d b3bd
000000e0: ba7a 893d c817 24be 8e7c 32b9 713f 363f
000000f0: d07e 3abc e9f9 21ba ddf4 9cbc 90dc 0dbd
00000100: 8aeb a73c 1a34 37bd 85b4 f239 e783 3c3f
00000110: 7e58 fa3c 2827 f638 d285 c3bc fa64 e0bc
00000120: b27c b53e 6d59 c0be dc2b 24ba 17b4 a0b8
00000130: 5df3 1bbf 40a3 74b9 df00 443c 2413 d8bd
00000140: 25db d2be 7a59 67bd 5ebd 10ba 91c8 5a39
00000150: cc71 06bf e9a1 12ba 370d df3c 7c6c 72be
00000160: 405a d6be fe82 6bbd ba7a e839 bd89 d4b9
00000170: 8cb7 05bf 426a 483a bb8b 463d 8dee 63be
00000180: 8db1 913b e04a 19bd e139 4238 d65a b23d
00000190: 8f69 033c a2a5 7d38 358a 273f 171a 50bc
000001a0: 2ad9 af3e 7b4a c1be 48c8 1f3a a51a 6cba
000001b0: da8a 1abf 0f57 9639 9f3f 8a3c 2220 b9bd
000001c0: 35f5 ad3e fc2d c2be 6eba 8539 b840 9d3a
000001d0: b941 1abf 468a b839 befd 963c 6ab4 cfbd
000001e0: 25c8 af3e fd32 ffbe e58f 0239 56a7 fb39
000001f0: ea64 8fbd 96ec 0e38 5dc6 933c b5b4 2cbf
00000200: 0826 55bc 31bc 623f f395 8fb8 3d68 81b9
00000210: b57f aebe 6071 5cb3 e594 773b 1c80 9e3e
00000220: f1df 3b3a 8446 6c3f 9553 ba39 cc2f a339
00000230: 768b a4be 5a18 2739 3a71 2d3b f308 a43e
00000240: 582b 17bd 36d8 213a 9700 a2b7 f3db efba
00000250: 1a02 2b3f 7d8b 86b7 142c 7d3a 1d9d f9b7
00000260: 3435 cfbf d262 30ba 3e92 a437 4155 be39
00000270: fd66 3d3f 97de 96b8 fab5 7bb9 02f9 46b9
00000280: 2fc4 9b3c 031c c4be 331a d7b9 13aa 603a
00000290: 658f ebbc d7a8 8639 57e1 05bc cdd0 a03f
000002a0: d4f5 003b f80c e6be 695b 92b9 6041 573a
000002b0: a819 82bc e4b7 fab9 dce0 8bbb a9cf a13f
000002c0: 8d08 27bb 48f9 34bf fb72 bf3a 5097 293a
000002d0: 42cf 87bd b015 fd3a feb3 f0ba ab4d 9d3f
000002e0: 6888 403b 2b91 1dbf 0ab0 4c38 53ce 27ba
000002f0: d102 44bd 59ae 0cba cdc1 5bbb 8ee9 9e3f
00000300: 30fd 9dc0 7acb a940 7f99 3b40 700a 5f40
00000310: 330e b140 590b f63f 4b09 0640 d16e cfc0
-0.5996789 0.43164513 -1.0866519 0.06890625 -0.14671631 -1.5224485 1.3413565 -0.514228
0.7883257 -0.009524878 5.7928948e-05 0.000113820126 0.14002205 -0.00017668898 0.0032452259 -0.013195516
0.7882845 -0.0075468603 0.000920691 -0.00045304635 0.1414074 -0.0009403681 0.0027844168 -0.012026078
0.7897758 -0.007827986 -0.0008419202 -1.8807114e-05 0.13804813 0.0009172599 0.0019881474 -0.018960327
-0.3723803 -0.8256547 -0.00012371351 7.315319e-05 0.12840934 -0.00012818485 0.0002601849 0.000489203
-0.4048912 -0.049503747 -7.860423e-05 0.00010969042 -0.5189805 8.6490494e-05 0.039589018 -0.2214781
0.09575517 -0.08281444 -0.000295542 0.7064094 0.02059392 0.00019859045 -0.014181002 -0.08742854
0.06712861 -0.16024697 -0.00017021803 0.71190554 -0.0113827735 -0.0006178902 -0.019159729 -0.034634173
0.020498056 -0.044727422 0.00046292334 0.73638767 0.030559774 0.000117374875 -0.023867521 -0.0273919
0.35446697 -0.37568226 -0.0006262639 -7.662939e-05 -0.6091822 -0.00023330469 0.011963098 -0.10550526
-0.4118282 -0.056481816 -0.0005521382 0.00020864817 -0.5251739 -0.00055935845 0.027227981 -0.23674196
-0.4186573 -0.05749797 0.00044341927 -0.00040538414 -0.52233195 0.0007645228 0.0484731 -0.22258969
0.0044462145 -0.037424922 4.630711e-05 0.08708732 0.008020773 6.0474158e-05 0.6544526 -0.012701533
0.3434537 -0.37752137 0.0006095213 -0.0009006656 -0.6036812 0.00028675093 0.01687604 -0.09039332
0.3397614 -0.37925708 0.00025506638 0.0011997437 -0.60256535 0.00035198237 0.01843154 -0.10141833
0.34332386 -0.49843588 0.00012451371 0.00047999126 -0.0700167 3.4075776e-05 0.018038923 -0.6746324
-0.013009556 0.8856841 -6.8467016e-05 -0.0002468246 -0.34081808 -5.1325856e-08 0.0037777957 0.30957115
0.0007166854 0.922951 0.00035538958 0.00031125394 -0.3213765 0.00015935433 0.0026465193 0.32038078
-0.03690657 0.00061738805 -1.931218e-05 -0.0018299803 0.6680008 -1.6039e-05 0.0009657752 -2.9756275e-05
-1.6188111 -0.00067285926 1.9618423e-05 0.00036303143 0.7398527 -7.194018e-05 -0.00024005017 -0.00018975514
0.019014446 -0.3830262 -0.00041027516 0.0008570265 -0.0287549 0.00025684267 -0.008171401 1.2563721
0.0019677775 -0.4493177 -0.00027915396 0.0008211341 -0.015881374 -0.00047820725 -0.0042687487 1.2641498
-0.0025487274 -0.70692873 0.001460641 0.00064693857 -0.06631328 0.0019308832 -0.0018364189 1.2289327
0.002937818 -0.61549634 4.880134e-05 -0.0006401289 -0.04785425 -0.0005366556 -0.0033532262 1.2415025
-4.9371567 5.3060884 2.9312437 3.485012 5.5329833 1.9222213 2.0943172 -6.4822774

gate_generator.0.weight f4 [16, 8]
00000000: 0224 913e 4516 2bbd cc79 3e38 1333 873e
00000010: 4be2 313f 9527 5538 1d51 813f 198a 803d
00000020: e8c8 f3bd 7831 8a39 7605 3cb6 497b 5db9
00000030: 499b fa3e 4f6f 9db7 9105 1239 dbf1 1239
00000040: b971 abbe 5d4e 9e3d a211 55b8 89d7 3739
00000050: 2789 4bbf 90d1 19b8 24b6 a83d 0868 06bd
00000060: ff7a 22bf b5e3 1f3e c8ec cd3e d316 263f
00000070: cf1c 043d f772 c83e 3920 553f 843f 9cbf
00000080: eddd d2bd 13ad 9fbe 8d3e bc3d c320 a4be
00000090: c288 5e3e b756 973d 5cf6 dc3e 120a 5d3d
000000a0: b26d 8e3e fac5 2d3d 437d 9abe d5c0 82be
000000b0: 48af b0be 3c6a 1c3e 5fc1 5bbd 2fe1 53bf
000000c0: 8ace 8abf 61ac 313d d7dc f8b8 345e adb8
000000d0: 501f b43e 4a54 0f39 4d0d e038 a311 aa3a
000000e0: 6dd0 903c 52b9 31be 4829 063a ecb0 a0b9
000000f0: 29ff 7cbe 2bb9 5b39 3df8 d3bb 64e7 403e
00000100: 26e1 9c3b 5650 b23a 99e3 51b8 3c12 b6b8
00000110: 0741 323b e3fd 0d38 fd2d 10ba 7b40 033f
00000120: 0e20 8b3e 04dc 01be 9ce4 06b9 1989 a03a
00000130: 0da3 a4be 6c78 343a c27d 0b3d 567a 1ebe
00000140: b7f6 993f 5f66 e73c 3dde 74ba e28f 9cb9
00000150: f592 623e 562b 683a 269b 06bc 3d3b 103d
00000160: 3e9e acbd 8cd4 6dbf 16fa c1b8 ec7b 5fb9
00000170: 2725 143e 557b 0bb9 7eca 243a 5d79 8dbe
00000180: c1ff 103e 915c 553a 755a 2db8 018b 9eba
00000190: 9682 1a3f a32c 14b7 6a96 9a3a 9d4d c4b9
000001a0: bfb1 a1bf 2413 293f e8f0 0c3f 5ed2 5e3f
000001b0: 6b50 5dbf 1bf2 9e3e 5430 e03f 59b5 10c0
000001c0: a137 9abc 8972 203d 42e0 ebb8 b642 503f
000001d0: 7d5e 953b f495 e3b8 966d f83e ac43 6eba
000001e0: 05c8 c73d cc1b 023f dbfa 3d39 d420 4a39
000001f0: 357c fcbe 2b76 b339 3c30 993c efbc ed3d
0.28347784 -0.041769285 4.5412962e-05 0.26406154 0.6948592 5.082002e-05 1.0102879 0.0627634
-0.11903554 0.00026358268 -2.8017362e-06 -0.0002112213 0.48946598 -1.876769e-05 0.00013925719 0.00014013743
-0.334852 0.0772979 -5.079958e-05 0.00017532533 -0.7950615 -3.6673213e-05 0.082378656 -0.032814056
-0.6346893 0.15614207 0.40219712 0.64878577 0.032254037 0.3915021 0.8325229 -1.2206883
-0.10296235 -0.31186733 0.09191618 -0.32056245 0.21731856 0.073895864 0.43156707 0.053964682
0.27818066 0.042425133 -0.30173692 -0.25537744 -0.3450873 0.152749 -0.05365121 -0.8276548
-1.0844281 0.043377284 -0.00011866696 -8.2668295e-05 0.3518014 0.00013668943 0.0001068363 0.0012975227
0.01767751 -0.1735585 0.0005117846 -0.00030649395 -0.24706711 0.00020954448 -0.0064688013 0.18838269
0.004787582 0.0013604264 -5.004145e-05 -8.681833e-05 0.0027199404 3.385347e-05 -0.0005500017 0.51270264
0.27172893 -0.12681586 -0.000128644 0.001224789 -0.32155648 0.00068843993 0.03405548 -0.15476355
1.2028416 0.028247057 -0.00093409774 -0.0002986184 0.22126372 0.0008856555 -0.008215701 0.035212744
-0.0842862 -0.92902446 -9.249539e-05 -0.00021313102 0.14467297 -0.00013302018 0.0006286277 -0.27631655
0.14160062 0.00081390986 -4.133066e-05 -0.001209587 0.6035551 -8.83188e-06 0.0011794094 -0.0003744186
-1.2632369 0.6604483 0.55055094 0.87039745 -0.86450833 0.31044087 1.7514749 -2.2610686
-0.018825354 0.03917173 -0.000112474445 0.8135179 0.004558383 -0.000108521344 0.48521107 -0.00090890634
0.097549476 0.50823665 0.00018117896 0.0001927645 -0.49313512 0.00034229583 0.018699758 0.11608302

gate_generator.0.bias f4 [16]
00000000: 07c4 e8be f05b f8bd e098 cd3c bc74 a3bf
00000010: a2a6 3dbf eccc 3dbf f045 92be 6bec 923a
00000020: daa6 ccbc 2ddd 313c 8cbd b8be 7d99 a3be
00000030: e093 66be c9e1 0dc0 85fe 1abd 61cc c2bb
-0.45462057 -0.12126911 0.02509731 -1.277 -0.74082386 -0.7414081 -0.28568983 0.0011209374
-0.024981905 0.010855955 -0.36082113 -0.3195304 -0.22517347 -2.2169058 -0.037840385 -0.005944774

gate_generator.2.weight f4 [16, 16]
00000000: 138b 7b40 f065 a03f 686d ac3f 0776 38be
00000010: 390e 253f 5a9f e93e d422 0141 e343 33bf
00000020: 8db2 4f3e 52dc 663f 2a06 c140 5beb 823f
00000030: 8d44 6fbd ed03 243e 846d 703f c9b8 923f
00000040: 3cb7 24c0 7f05 9b3e a83f 08c0 5efc 1c40
00000050: 1d76 36bf 5c9d 093f f891 66be 9111 1bbf
00000060: 23ab cabf c348 b9bf 2dfa 0bc1 4ca0 59c0
00000070: 035e 8d3e 79f4 fb3d 1229 39c0 8976 b0bf
00000080: 026c 50bf d074 a6c0 ca34 0cc0 555d 7cc0
00000090: 75cf 0e3f 5375 7240 f3ae b740 7d9d c7bf
000000a0: b106 9ebb 8edf f03e 1cda 90be 8ccb cbbf
000000b0: 0d48 48c0 f317 29bf 4a2a 013f d404 c340
000000c0: 4768 c3bf 5ee2 01be 62eb 0b40 fae3 a83e
000000d0: 4514 7c3e b5e7 523f e1f3 703b 56dc 35bf
000000e0: ecdc 1e3f 0113 1b40 388b 6441 7102 6a40
000000f0: aee3 48bf c9e7 2f3e ef1c a140 76e8 2c3f
00000100: 01d6 6940 eeaf 52c0 ebf3 483f 2c50 383f
00000110: 74e3 c53c 6279 c03f 88a0 523f da12 1a40
00000120: 8f2f a23f 0f2d dcbe c614 433e 5bc9 d63f
00000130: a035 24c0 6aa0 173f 78d8 053f 05a1 b0bd
00000140: 8ade 47c0 dbc9 2b3f 6bff 0fc0 b47b b53f
00000150: 1fcc 5d3d 18a6 99bf a14d 8ec0 0d75 86bf
00000160: 2412 fdbf 6f4e 81bf af99 02c0 fee9 2bc0
00000170: 2c25 5e3f aa8c 0c40 f7d5 47c0 7c0d 02bf
00000180: d028 2cbe facf 173e 50e4 5dbd 4496 033e
00000190: 86d0 3ebe 90ca 95bd 9878 373d d41e eabd
000001a0: 441f ae3d 7a9a 08be 7cd7 f73d 349c d4bd
000001b0: 3090 f6bd 345c 093e 9412 063e 782a 673d
000001c0: 49b6 19bf 7eb2 9c3f 42bb 1abf e80f acbc
000001d0: 9884 adbe 7ae6 9f3e 2224 0040 68ab b7be
000001e0: aa2f 21bf bc60 29bf 6084 e8bf bedb eabf
000001f0: b94d 623e c23a 383f 23a7 b8bf cef3 03bf
00000200: 63a1 023f fe1c eb3f 8c1e a13d 17f8 10c0
00000210: 26cf 673e 1005 723e c633 d83f b3b4 18bf
00000220: f9df a03e 568f 9a3e 494b ba3c 9078 15bf
00000230: 97c9 543e 473e 83bf a67a 62bf efce 3ebe
00000240: cd91 6ebf e505 ce40 a676 263f b365 a03f
00000250: ddc8 6f40 788e 39be d215 49bf 52a2 8ebe
00000260: 2cb7 8d3e 1537 823e 624c b240 0b14 b23d
00000270: 33a7 a23f 59bc 7c3e dca5 833d 6d99 8b3f
00000280: c8ef a53d 00b9 e43a 847d f93d a41c ea3d
00000290: 2cdc 7c3e 30a0 54be 6435 3a3e 0822 0a3d
000002a0: 4008 d83b a4a7 9a3d 8c53 38be 6421 51be
000002b0: acab 16be 14d2 d1bd a0f3 8ebc 9e28 6cbe
000002c0: a625 8141 f319 fa41 8186 2ac1 dbb5 0f3f
000002d0: 9575 8240 26a3 e03f ae3c 2140 de65 3ec0
000002e0: ba96 eec0 639d 823f 8b8a ea40 399c 0242
000002f0: 154e 5d42 515c 1940 e7b4 c440 ae8c 0743
00000300: 70e9 1e3f 1916 443f d43f cf3f d135 9f3e
00000310: c7b3 163e 8ea2 6dbf 6485 57bf f1c4 0fbd
00000320: ff88 df3d 7dcb 083f 0666 61be 8199 8e3e
00000330: a915 3342 4b5b 7dbd 59a4 47bf 1d5e 703f
00000340: b813 67bf 9d42 f2be 7956 28c0 cbc2 a43f
00000350: 418a e53e 6e2b bdbf e8e7 0041 6f03 48c0
00000360: 55ec 44c0 7422 febf 2d85 48c0 d40e afc1
00000370: 3a8c 733e fca2 0a40 e98c 2fc1 bcdf d0be
00000380: 88b1 5ebf 1960 783f b533 263d 4342 3940
00000390: 3692 52bf 8b03 e33e b7d6 86bf 140c 0c3f
000003a0: dc3c b340 4c07 9ebf 415b 6c40 7992 9dbe
000003b0: c2a0 d03f 8d19 8ebe e24a 653e 791a e1bf
000003c0: ca69 0b3f 985b 3540 ca3d 1340 fd73 183f
000003d0: 736c 1440 80be 443d 831e bb3f dc43 aa3e
000003e0: 0eea cfbf 0a87 4a3f 9e2f 84c1 7d6d dd3f
000003f0: 8ffb 493f 346e 8b3f 980c 1c40 1e4b 3640
3.9303634 1.2531109 1.3470888 -0.18013774 0.6447483 0.45629388 8.071003 -0.7002546
0.20282955 0.9017993 6.0320024 1.0228075 -0.058414984 0.16017123 0.9391711 1.1462642
-2.5736837 0.3027763 -2.1288853 2.4529033 -0.71273977 0.53755736 -0.2251662 -0.6057368
-1.5833477 -1.447533 -8.748578 -3.4004087 0.27610788 0.12302489 -2.8931317 -1.3786174
-0.81414807 -5.2017593 -2.190722 -3.9431965 0.55785304 3.788411 5.740106 -1.5594937
-0.004822575 0.4704556 -0.28291404 -1.5921493 -3.1293976 -0.6605217 0.50455153 6.0943394
-1.5266198 -0.12684008 2.1862416 0.32986432 0.24617107 0.82384807 0.0036766457 -0.7103933
0.6205585 2.423035 14.283989 3.656399 -0.7847241 0.17178263 5.034782 0.6754221
3.6536868 -3.291988 0.7849719 0.7199733 0.02415631 1.5037043 0.822762 2.4074006
1.2670764 -0.43003127 0.19050893 1.6780199 -2.565773 0.5922915 0.5228343 -0.08624462
-3.1229577 0.6710488 -2.2499645 1.4178376 0.054149743 -1.2003813 -4.446976 -1.0504471
-1.9771161 -1.0102061 -2.04063 -2.6861567 0.8677547 2.1960855 -3.1224344 -0.50801826
-0.16812444 0.1482543 -0.054172814 0.1285029 -0.18634233 -0.07314026 0.04479274 -0.11431661
0.08502057 -0.13340178 0.12101647 -0.10381356 -0.1203922 0.13414079 0.13093024 0.056436986
-0.6004377 1.2241971 -0.6044198 -0.021003678 -0.33890224 0.31230527 2.0022054 -0.3587296
-0.62963355 -0.6616323 -1.8165398 -1.834831 0.22099961 0.7196466 -1.4426006 -0.5154389
0.51027507 1.8368223 0.078671545 -2.2651422 0.22637615 0.23634744 1.68908 -0.59650725
0.31420878 0.30187482 0.022740977 -0.5838709 0.20780025 -1.025338 -0.88468397 -0.18633626
-0.93191224 6.4382195 0.65024793 1.2531036 3.7466347 -0.18120754 -0.7854892 -0.27858216
0.27678812 0.2543265 5.571824 0.08695229 1.2707275 0.24681224 0.064281195 1.0906197
0.08102375 0.0017450154 0.12182143 0.11431244 0.24693364 -0.20764232 0.1818443 0.03372386
0.0065927804 0.07551506 -0.1800062 -0.20422894 -0.14713925 -0.10245147 -0.017450154 -0.23062369
16.143383 31.26267 -10.657838 0.56136864 4.0768533 1.7549789 2.5193286 -2.9749675
-7.4558992 1.0204281 7.329412 32.65256 55.326252 2.3962595 6.147083 135.54953
0.6207495 0.7659622 1.6191354 0.31095746 0.14717017 -0.92826164 -0.8418791 -0.035099927
0.10914802 0.534355 -0.22011575 0.2785149 44.771152 -0.061854642 -0.7798515 0.93893605
-0.90264463 -0.47316447 -2.6302779 1.2871946 0.44832042 -1.4778879 8.056618 -3.1252096
-3.0769246 -1.9854264 -3.1331284 -21.88224 0.23783961 2.1661978 -10.971902 -0.40795696
-0.8698964 0.97021633 0.040576655 2.8946693 -0.8225435 0.4433864 -1.0534276 0.5470593
5.601179 -1.2345977 3.6930697 -0.30775812 1.6299059 -0.2775387 0.22391847 -1.7586204
0.54458296 2.8337154 2.3006463 0.59551984 2.3191192 0.048033237 1.4618686 0.33254898
-1.6243303 0.79112303 -16.52325 1.7299038 0.7889947 1.0893006 2.4382687 2.8483348

gate_generator.2.bias f4 [16]
00000000: 4ce6 4e3e 8d4b 4ec0 8a6c 8d3f 938b 6b3f
00000010: b5ce d93e 9a17 e9bf 88ec 643e be2d da3d
00000020: d1f4 cebe 44a1 10bf 8024 083d 0fb2 993d
00000030: da46 ff3d 3df4 51bf 9841 b33d e41d 9f3d
0.20205039 -3.2233613 1.1048748 0.9200985 0.42540517 -1.8210328 0.22355855 0.10653256
-0.40421155 -0.5649607 0.033237934 0.07504665 0.12464686 -0.82013303 0.087527454 0.07769373

spatial_processor.0.weight f4 [16, 6]
00000000: e50d 2ebb f0f8 c1be 9c87 fc3f 88de 15c0
00000010: 5876 12c1 c579 5dc0 909b 26be c06f f940
00000020: 0a77 c940 bdab 70c0 8fed 84c1 0f90 05c0
00000030: b08a debc 5765 0fbf 5539 8ec1 9a3e e4c1
00000040: 6a48 f140 8d6d 083f f736 ef3f 2c7c 09bd
00000050: 51c0 ddbf 6cea 56be 06d3 313f 65d6 823e
00000060: bf9b 8ebd e772 0dbd e81e c4c1 71dd 25c1
00000070: 2b21 1842 3355 31bf 3dee 75be b0ba 0540
00000080: f1b7 08c1 db42 00c0 6fcf 5f40 107c 843f
00000090: 57db cabe 8b67 c9be 003a 1abe d35d 88bc
000000a0: c8c4 f5bc 55a1 a7be 7bf4 6bbc add7 33c0
000000b0: aff0 80be 1f73 21bf e575 53c0 c2a9 393e
000000c0: 24db 49be 00b6 a9bd f267 ddc0 a7f6 23c1
000000d0: 50df a141 3662 603f 9c2b 9cbd 3334 7a3c
000000e0: b6ed 54c1 2a46 0ac1 9543 f2c0 3f32 ce3f
000000f0: bf0f cfbe 89e0 29be c67e 043e cb5e 75be
00000100: 2aa6 843e 9bd3 70be 2ab8 e2bd 71d4 843d
00000110: 4026 f7be 1fae f8c0 9a2d 8a40 a4c1 d5be
00000120: f167 5fbd 9796 0cbd af03 8fc0 62e0 2bc1
00000130: a189 0542 4bb4 c2bf 8798 563d 932a 7a3e
00000140: 3131 a5be 7201 81c0 aa4d 6240 9f71 03c0
00000150: 3a55 18bd a41f 293d cb38 f6c0 a374 cfc1
00000160: 24e6 0842 4720 94bf 3119 57bd afb9 7f3d
00000170: 12a9 57c1 fe64 6ec1 049c ed41 090c d03f
-0.0026558575 -0.37885237 1.9728885 -2.3417072 -9.1538925 -3.4605572 -0.1627028 7.7948914
6.295781 -3.760482 -16.615995 -2.0869176 -0.02716574 -0.5601401 -17.777994 -28.530567
7.5400896 0.5329216 1.8688649 -0.033565685 -1.7324315 -0.20987862 0.6946262 0.25554195
-0.069633 -0.034533408 -24.51509 -10.366563 38.03239 -0.6927063 -0.24016662 2.0895195
-8.544908 -2.0040805 3.4970357 1.0350361 -0.39620468 -0.3933681 -0.15061188 -0.016646301
-0.03000106 -0.32740274 -0.01440155 -2.8100388 -0.25183627 -0.63066286 -3.3040707 0.18131164
-0.19712502 -0.08286667 -6.9189386 -10.247718 20.23404 0.8764986 -0.07625505 0.015271234
-13.308035 -8.64213 -7.5707498 1.6109084 -0.404417 -0.1658956 0.12938985 -0.23961942
0.25908023 -0.23518221 -0.11070283 0.064858325 -0.4827137 -7.771255 4.3180666 -0.417493
-0.054542486 -0.0343233 -4.4691997 -10.742281 33.384403 -1.5211271 0.052391555 0.24430303
-0.32264093 -4.0314264 3.5359902 -2.05381 -0.037190653 0.04128994 -7.6944327 -25.931952
34.224747 -1.157235 -0.05251426 0.06243294 -13.478777 -14.899656 29.70118 1.6253673

spatial_processor.0.bias f4 [16]
00000000: c9ae d43f 1a29 bfbe 7d1a b13f 2562 41bf
00000010: be7d a83f bfea 2c40 33c6 b1be 3838 bd3f
00000020: a5d5 fa3f c236 3340 d8f8 b3be 78f0 fd3f
00000030: 7823 a13f 0903 2a40 f27b 513f 4e1a 9c3f
1.661584 -0.37336046 1.3836209 -0.7554038 1.3163373 2.7018278 -0.34721527 1.4782782
1.9596449 2.8002172 -0.3515079 1.983901 1.2588949 2.6564353 0.8182975 1.2195528

final_layers.0.weight f4 [16, 16]
00000000: 49e8 31bf 0bcf 3d40 2498 bcbf f821 df3e
00000010: c070 f33d 645b 1440 46ae 593e 59cb 673f
00000020: 5d76 2440 3ce7 01be d0ef c03c 71f2 413f
00000030: bb7e 913f 56f8 203f f3d7 cb40 aa05 3340
00000040: 0196 e1be 8b3e dcc0 be66 31be 21e4 d9bd
00000050: 3859 02bf 3425 8840 c092 6f3d 8e9a 30bd
00000060: 4006 0bc0 4ed4 8e40 2066 0bbe 5541 3cbf
00000070: f0d3 dbbf dc04 433e d20b 1cc0 ef55 113f
00000080: 35ae 1640 d3e8 05c0 8336 0ec1 18b6 dcbe
00000090: 379b 0bbf 97ae 5040 323b 573e f4c1 e4bf
000000a0: 8ac9 1a40 ca30 cebf 2cc2 c83d 5125 85c0
000000b0: ee55 afbf 4315 18bf d3f3 533e 7064 8cc1
000000c0: 00fd 04c0 7b15 4240 aa4d ca3d 55b7 243b
000000d0: 67cc 8bba 9989 76bf ba60 69be 0ff3 963f
000000e0: 3303 3240 2389 1040 7a50 59be 5465 ebbf
000000f0: f869 67c0 66ce 6e3f 8716 69be 5eb6 c53e
00000100: c1e1 49bd b783 1c3d a605 9dc0 51a4 343f
00000110: be18 6e40 df64 e3be d00a e4bc c8ef da3f
00000120: 8ce7 ac3e 018b 2740 64d1 6ebe 1414 b93f
00000130: 825b 6d3e e223 3b40 581c 6c40 030c 1040
00000140: 0f5c 11bc 2927 0cbe 770e dd3d e734 77be
00000150: 5759 40be 9d32 bcbe c0ae 3cbc 4387 a8bd
00000160: 2ad9 d53d 0ac4 11be b0bf 8bbd 694c c83d
00000170: 4504 5bbe 9a13 473d e452 2c3e f851 96bd
00000180: ead3 0c3f 312e 243f 4bf1 89bf 0318 70c0
00000190: 248b e5bf 34d7 363f 7078 f03c 6c54 cd3f
000001a0: 5e6e 8ec0 9a54 833e 8438 6cbe ec3e bb3f
000001b0: a8d9 dbbf 3b92 40c0 7b30 9c3f db5b 0b3f
000001c0: 91a0 8cbe bc2b 6f3d 930d 9dc0 a630 c63e
000001d0: b8b1 6d40 e202 e5be 0066 ec3a a9d4 b83f
000001e0: 6afa eb3e d965 2640 d0dc 8a3d 272c 9e3f
000001f0: 3264 933e 65f3 3a40 ea9f 6a40 e400 f93f
00000200: da1f 13be d079 3d3e bd0b 9dc0 8667 1b3f
00000210: ef72 6840 978c 14be bc2c b93d 28ce bc3f
00000220: 5b02 1e3f 2505 2540 fe0f 62be 0b29 a03f
00000230: 6d30 8a3e 5f99 4540 a059 7e40 bdd5 fa3f
00000240: c3f5 debd 67c1 1a3e 8486 97c0 1c44 3b3f
00000250: 2401 6840 301c 3ebe dc1b 123e 53e6 cf3f
00000260: ea18 da3e 89ca 2440 2c40 173e 2049 a23f
00000270: 93fc a23e cafe 4740 46db 7240 9187 0a40
00000280: 5e48 b9bf 762d 08c0 c063 f640 06ba 023f
00000290: 4e75 3640 fb6a 4a40 70be 53bd 5b00 28c0
000002a0: 8ac6 1440 b303 1c3f 1448 553e a201 cdbd
000002b0: ddc5 fc3e bc15 1c40 1709 3d40 7ee3 483f
000002c0: 9c24 22bd 80a4 803e c937 a1c0 e834 fc3e
000002d0: 12e1 6440 08cb 4ebe b283 43be 7632 d03f
000002e0: 538b 5b3f 6c46 3b40 78cd e8bd f4cd ca3f
000002f0: edaa b43e e6cf 5440 c69a 8940 edbe 0340
00000300: f71c fc3e eee7 2e3e e4a7 54c1 23b5 d5be
00000310: 555e fa3e 83db 9cbe 8071 e63c d316 7240
00000320: 2d9c 88bf 926a 1fc0 e059 f13d ecca 0c3f
00000330: caa1 1840 1b18 8abf ff77 1941 cd22 3b40
00000340: e92e 9d3f c8ad f33f 01b3 5dc1 00b1 6dbe
00000350: 1c52 483e e280 b03f a0b2 7dbc ad06 8abf
00000360: 2ff9 39bf 7dac e4be e498 c9bd 332a 8fbf
00000370: 9273 8b3f ea39 6040 8cdc 6840 ab2a 353f
00000380: 78b9 53bf 6f23 1b40 6cee 0dc1 64d7 473e
00000390: 1799 be3d 5ad2 1ac1 706d 80bc cac9 eebe
000003a0: a1fa 10c0 9586 923f 02c8 33be b78e 0cc0
000003b0: 77a6 cc40 c69f dd3f cfa1 b1c0 41a0 0140
000003c0: ce2d 8b40 c0b0 e7bf 11aa c6bf 1398 13be
000003d0: c31e 8d40 d540 e1bd b8ba aabd 26ef 40c0
000003e0: b03d c53f 6ccc 91bf 2a3d 773e f464 85bf
000003f0: a326 37c0 36e5 0240 ffdf 7bbe 9b3c 04c0
-0.69495064 2.965762 -1.473393 0.43580604 0.1188674 2.318078 0.21257886 0.9054466
2.5697243 -0.12685865 0.023551852 0.7576056 1.13668 0.6287893 6.370111 2.7972207
-0.44059756 -6.8826346 -0.1732435 -0.10639215 -0.50917387 4.2545414 0.05848956 -0.043116145
-2.1722565 4.463416 -0.13613176 -0.7353719 -1.7174053 0.19044822 -2.4382215 0.5677175
2.3543828 -2.0923355 -8.888309 -0.43107677 -0.54533714 3.260656 0.21018675 -1.787169
2.418551 -1.6108639 0.0980266 -4.160805 -1.3698099 -0.5940744 0.2069848 -17.549042
-2.077942 3.032561 0.098780945 0.0025133688 -0.0010665775 -0.9630371 -0.22790805 1.1792926
2.7814453 2.2583702 -0.21222106 -1.8390298 -3.6158428 0.9328369 -0.227625 0.38615698
-0.04928756 0.03821155 -4.9069395 0.70563227 3.7202601 -0.44412896 -0.027837187 1.7104425
0.33770406 2.6178591 -0.23322064 1.4459252 0.23179439 2.924065 3.68923 2.2507331
-0.008872046 -0.13686813 0.107937746 -0.24141274 -0.1878408 -0.36757365 -0.011516273 -0.08228924
0.104418114 -0.14234939 -0.06823671 0.09780199 -0.21388347 0.048602678 0.16828495 -0.07339853
0.55010855 0.6413298 -1.0776762 -3.7514656 -1.7933087 0.71422124 0.029354304 1.6041389
-4.4509726 0.25650483 -0.23068434 1.4628577 -1.7175798 -3.0089252 1.2202295 0.54437035
-0.27466252 0.058391318 -4.907907 0.3870899 3.713972 -0.44728762 0.001803577 1.4439899
0.46089488 2.5999663 0.06780398 1.2357224 0.2878738 2.9211056 3.6660104 1.9453397
-0.14367619 0.18503499 -4.907683 0.6070484 3.632015 -0.14506756 0.090417355 1.4750414
0.61722344 2.578439 -0.22076413 1.2512525 0.2699007 3.087486 3.9742203 1.9596478
-0.10886719 0.1511284 -4.7351704 0.731508 3.6250696 -0.1856544 0.1426844 1.6242164
0.42597133 2.5748618 0.14770573 1.2678566 0.31833324 3.124926 3.7946334 2.1645243
-1.447521 -2.1277747 7.6996765 0.510651 2.8509097 3.1627796 -0.051695287 -2.6250217
2.3246179 0.60943145 0.20828277 -0.10010077 0.49369708 2.4388266 2.9536798 0.78472126
-0.039585695 0.25125504 -5.0380597 0.49259114 3.5762372 -0.20194638 -0.19093207 1.62654
0.85759467 2.9261732 -0.11367315 1.5844102 0.35286656 3.325189 4.3001432 2.0585282
0.49240848 0.17080662 -13.290989 -0.4173976 0.48900095 -0.30636224 0.028130293 3.782643
-1.0672661 -2.4908795 0.117847204 0.54997134 2.3848748 -1.0788606 9.591796 2.923999
1.2279941 1.9037409 -13.856202 -0.23212051 0.19562572 1.3789332 -0.015484482 -1.0783287
-0.7264585 -0.44662848 -0.09843615 -1.1184753 1.0894644 3.5035348 3.638461 0.7076823
-0.8270488 2.4240377 -8.870708 0.19515759 0.09306543 -9.676355 -0.015677184 -0.46638328
-2.2652972 1.1447321 -0.17556766 -2.1962106 6.3953204 1.7314384 -5.551002 2.0254061
4.3493414 -1.8100815 -1.552065 -0.1441348 4.410005 -0.10998694 -0.08336395 -3.0145965
1.540945 -1.139051 0.24144426 -1.0421433 -2.8617332 2.04524 -0.24597166 -2.066199

final_layers.0.bias f4 [16]
00000000: 7ac6 81c0 6af8 1c40 3feb 8b40 b48f 6740
00000010: 5573 4d3f e9ed 85be 4bce f53f 481f 6e3f
00000020: 5c2b 503f 98cd 653f c1fc 91c0 7792 4a3f
00000030: 9719 e73f 2a2c 25c0 2cef 76bf 48b7 37be
-4.055478 2.452662 4.3724666 3.618146 0.8025411 -0.26158074 1.9203581 0.9301648
0.8131616 0.89766836 -4.5621037 0.7912974 1.8054684 -2.5808206 -0.964587 -0.1794101

final_layers.2.weight f4 [1, 16]
00000000: 24e1 7240 a7ce 9bc0 d0fc 6e40 0ad7 39c0
00000010: 9620 af3f 751b 273c 9acc 443f beab a93f
00000020: 21f2 a63f bed1 ae3f e418 9f40 845a c83f
00000030: 841d 3dc0 847d 2dc0 5fdc febf 6fb9 36c0
3.7949915 -4.868976 3.7341805 -2.90375 1.368182 0.010199417 0.768747 1.3255537
1.3042642 1.3657758 4.9717884 1.5652623 -2.9549265 -2.7107859 -1.9911002 -2.855068

exp_avg f4 [25, 8]
00000000: 0000 0000 0000 0000 0000 0000 0000 0000
00000010: 0000 0000 0000 0000 0000 0000 0000 0000
00000020: 2341 c03a 0ca1 a7b9 9165 71b5 fb5b 5036
00000030: a63e 3cba c35a 1e36 b13d b338 f054 ccb9
00000040: b589 ec3a e4a5 3eb9 6933 a3b5 7a48 ea35
00000050: dcd2 99b9 8faa 0d36 6fd3 4938 8bc9 67b9
00000060: 86c1 393b 78de 3439 7669 1fb6 1cad edb5
00000070: 0d2a 563a 4336 f235 2dea 48b8 21b0 5e39
00000080: 8630 e2ba ca94 9f39 3095 7cb4 0a85 39b3
00000090: c852 113a 124d 6a34 8b4b 2935 a330 5138
000000a0: bf63 9cb8 6b2b d9b8 c2b6 8fb3 c122 58b5
000000b0: 78c3 333a 6018 0fb5 28eb 65b8 1cff f937
000000c0: b538 4f3a aebe 19b9 18c5 a9b5 2c2a c33b
000000d0: 7f96 8bba 869e d135 7643 703b 1456 0cba
000000e0: c9d3 2339 af60 e337 ff43 e6b4 8159 903a
000000f0: 2c76 06b9 5b65 8534 0bd2 323a f5fb 37b9
00000100: 7972 633a fe4e b2b9 e11d 21b5 6d1a e43a
00000110: a486 8bba ade2 0836 84a1 963a da0d 08ba
00000120: ab05 5739 3ea3 d0b9 508a 2f34 6e3d 44b4
00000130: 29b4 193a 386b 3133 aa9b 79b8 5761 0038
00000140: c3b7 3b39 d7f2 b4b9 f441 3b35 9429 8e34
00000150: 0bc8 13ba dd1b 4035 2cd6 3c37 a3c2 4639
00000160: 9a4c ba39 058f 15ba 33b3 e634 fe03 8534
00000170: 0f05 8539 b752 1035 85dd 3eb8 312a 9838
00000180: 38bc f637 7ee2 97b7 19b5 3233 7537 8fb9
00000190: 1ee1 e938 082b 8ab2 1986 e8b9 8a9d 7936
000001a0: ab8f bab9 022a a339 883f 6833 306a d8b4
000001b0: e577 18ba de9b 90b4 4210 5838 78ec a138
000001c0: 065c eeb8 4624 4539 ec7d 70b3 be47 bc33
000001d0: 7fdd aeb9 0191 29b2 dcdb 0738 f8ed f6b6
000001e0: 4994 f938 1bcd a9b9 a900 a6b3 fe33 2135
000001f0: fd9c 06b9 1688 ae34 c741 9737 5a52 25b9
00000200: ea6e 8fb9 85ee b4ba b3ea a0b5 1e30 ecb5
00000210: a4cc a53a 74e7 4bb5 60b8 37b8 5e02 ae3b
00000220: 14b0 dd36 3bea d738 b715 3433 7a13 8933
00000230: 6d87 03b9 a3fb 3d33 472a e036 0d5d ffb8
00000240: 804f c2b9 1e9b c3b6 aeb0 6434 6c89 0637
00000250: 1adf b9bb 1dee 1c34 62f8 fcb6 81b9 df35
00000260: 9c0b eb39 01e5 d0b7 c286 9433 ec1f 8bb4
00000270: 7579 103a 71e4 f9b3 3ac4 1134 f36d 11b5
00000280: 87ea 6b37 13d0 6ab9 eef7 4935 1f57 5ab4
00000290: 25ce a7b9 9fb5 7e34 d27c f5b6 aa2d 31ba
000002a0: b977 9037 a84e 3138 6dda b6b4 f4ec b9b4
000002b0: 8829 8538 5f64 ae33 8992 86b5 e9b7 103b
000002c0: cd1a 6838 af63 05ba c940 c635 9e95 80b5
000002d0: d0ba 3dba 8828 3035 6fbb a2b7 78a3 703a
000002e0: f833 57b7 d355 2339 5e1a 03b5 2066 6834
000002f0: 5303 6939 b8c7 39b4 1578 b636 5cc1 1b39
00000300: 1df8 001a dc96 159a 0eec 599a 7faa d99a
00000310: 6b77 cd1a 3aed 319a 92b7 049b eefa 3c1b
0.0 0.0 0.0 0.0 0.0 0.0 0.0 0.0
0.001466785 -0.0003197271 -8.9927295e-07 3.1047955e-06 -0.0007180966 2.3596665e-06 8.546876e-05 -0.00038973195
0.0018046411 -0.00018181611 -1.2159409e-06 1.7455452e-06 -0.00029339537 2.1109915e-06 4.8119047e-05 -0.00022104957
0.0028344109 0.00017249014 -2.3754233e-06 -1.7708257e-06 0.0008169718 1.8046197e-06 -4.790181e-05 0.00021237183
-0.0017256893 0.000304377 -2.3523603e-07 -4.3194667e-08 0.00055436464 2.1820986e-07 6.3067336e-07 4.987478e-05
-7.457239e-05 -0.000103554536 -6.6922e-08 -8.0516844e-07 0.0006857435 -5.330712e-07 -5.481686e-05 2.9801908e-05
0.00079048733 -0.00014662251 -1.2648843e-06 0.005955955 -0.001064971 1.561785e-06 0.0036661304 -0.0005353403
0.00015623787 2.710553e-05 -4.2890312e-07 0.0011013002 -0.00012823258 2.4846926e-07 0.000682146 -0.00017546101
0.00086764205 -0.0003400966 -6.0020653e-07 0.0017402895 -0.0010644984 2.0397522e-06 0.0011492227 -0.00051900523
0.0002050611 -0.00039794476 1.6348463e-07 -1.827627e-07 0.0005863333 4.130854e-08 -5.95112e-05 3.0608233e-05
0.00017902166 -0.00034513205 6.9758903e-07 2.6479813e-07 -0.00056374137 7.156612e-07 1.1255539e-05 0.0001895526
0.00035533757 -0.00057052105 4.2971223e-07 2.4776085e-07 0.00025371506 5.3764546e-07 -4.5505836e-05 7.2557836e-05
2.9413131e-05 -1.8106071e-05 4.1608562e-08 -0.00027316404 0.00011152237 -1.6084883e-08 -0.000443504 3.7195591e-06
-0.00035583726 0.0003112108 5.407449e-08 -4.0310397e-07 -0.00058162055 -2.6935498e-07 5.1513554e-05 7.721124e-05
-0.00011365865 0.00018800897 -5.599388e-08 8.767482e-08 -0.00033352894 -9.870065e-09 3.2391268e-05 -7.3590745e-06
0.000119008655 -0.00032387007 -7.7300975e-08 6.005283e-07 -0.00012837719 3.250904e-07 1.8031233e-05 -0.00015766305
-0.00027357723 -0.0013803995 -1.1989235e-06 -1.7597374e-06 0.0012649489 -7.59602e-07 -4.3802313e-05 0.005310341
6.6068114e-06 0.00010295628 4.1929265e-08 6.3831024e-08 -0.00012543584 4.4233854e-08 6.680642e-06 -0.000121766796
-0.00037061796 -5.829511e-06 2.129843e-07 8.019018e-06 -0.0056723477 1.4615257e-07 -7.539101e-06 1.6668783e-06
0.00044831343 -2.490217e-05 6.9162994e-08 -2.5913994e-07 0.00055112626 -1.1636519e-07 1.3575564e-07 -5.4176706e-07
1.4061697e-05 -0.00022393493 7.523912e-07 -2.0334527e-07 -0.00032006312 2.3721667e-07 -7.3161e-06 -0.00067588186
1.7221888e-05 4.2273343e-05 -3.4059067e-07 -3.463134e-07 6.34967e-05 8.120764e-08 -1.0026425e-06 0.0022082275
5.533807e-05 -0.00050884014 1.4771005e-06 -9.580287e-07 -0.0007237615 6.562409e-07 -1.9399185e-05 0.0009179632
-1.28270985e-05 0.00015576863 -4.883967e-07 2.1643837e-07 0.0002222185 -1.7302125e-07 5.438002e-06 0.00014853984
2.6670204e-23 -3.093434e-23 -4.5065232e-23 -9.002455e-23 8.497894e-23 -3.6794372e-23 -1.0978099e-22 1.5632075e-22

exp_avg_sq f4 [25, 8]
00000000: 0000 0000 0000 0000 0000 0000 0000 0000
00000010: 0000 0000 0000 0000 0000 0000 0000 0000
00000020: b251 2439 a909 e035 bbee a72e d53d 5a2f
00000030: ad65 5037 b3ae 192f ea62 0034 b7b1 2636
00000040: 32dc 1a39 bdb8 c935 0262 9a2e ccc7 482f
00000050: 947f 3d37 404c 0f2f b92d e733 f40f 1636
00000060: 8e55 4b39 8400 8035 62eb df2e ca7f fb2e
00000070: 3605 1137 552a 272f d6c3 9233 0d7a be35
00000080: e7cc 133a 13d6 8338 465f df2d 5e83 0d2d
00000090: 220f 9438 b774 452d 3326 6c30 0deb 8936
000000a0: eb8e 1837 4dce b738 e58d 892e 8e78 0c2f
000000b0: 7711 9238 df08 8b2e 9f74 0635 3951 6136
000000c0: 17be 2736 9dfa 9b34 4cb9 8d2c bec2 dc38
000000d0: 8f64 8a36 2144 852d 58c6 2538 3af8 8835
000000e0: c53f 8a36 6c23 5535 3100 962d faf8 1639
000000f0: 6080 c236 7da9 bb2d 182f 6438 3874 b036
00000100: 4567 9a36 5d98 3f35 d160 a02c 13ab d138
00000110: 385f ee36 64e3 ec2d 0571 1e38 cafe e535
00000120: 0ed2 5d37 dc19 2739 eadf 442e 13e4 fd2e
00000130: 86e7 6938 940c 322e de0e 2335 36ac fa36
00000140: b4f2 3b37 5153 c438 0c8f 992e 797c 172f
00000150: 71d8 b738 fee5 b92e 973e 0635 8516 8d36
00000160: 6fd5 1637 03ca 9a38 4d89 572e f362 cf2e
00000170: 51c6 9938 f85d 7d2e 7ce5 f334 709f 4636
00000180: 209a 0538 6a83 8a35 f486 de2c 4ba3 5639
00000190: 8912 5039 5e1a ab2d a95b cc39 e1c1 9535
000001a0: a917 2937 cb49 4038 4992 082e 9aac 8b2e
000001b0: a49d 5238 fe4f f12d 56fb 0735 9974 2236
000001c0: 61d8 4b37 3030 2339 4940 222e a980 ff2e
000001d0: 0f2c 5e38 0a4f 2c2e 008d 2835 87b2 eb36
000001e0: 9633 8435 eafd b538 653f aa2b 2725 312e
000001f0: 978c a835 9be9 042d 0d71 1433 4216 3537
00000200: 8a1d 3237 e516 5c38 a40c 352d 3499 0b2e
00000210: 2c04 6439 41e6 332d e492 b835 2df9 3e39
00000220: e15b 4137 988b 1838 ede7 0b2d 6999 ad2d
00000230: ffa5 3b39 7d7c 112d b946 a635 a217 2239
00000240: 226a 7d37 d261 6230 0cf3 1b2d 969f af30
00000250: c122 993a a84d 9a2c c5c5 9330 bedb 832e
00000260: 0837 ee37 9a0b 8d33 9b82 fd2b a960 4a2d
00000270: 874d 5638 6c9b 802b 428b 902c 3e3d 272e
00000280: 1956 ff32 dafe 1b36 c058 c82d b797 6c2d
00000290: f9c7 9d36 0b85 dc2c 927e 6631 1235 b737
000002a0: ca5d 8d32 7b6e c435 0a7a 6e2d e211 1c2d
000002b0: a301 4736 67bf 552c c790 0a31 ef39 b137
000002c0: c834 5132 6e6a 6835 84aa 0d2d a688 ed2c
000002d0: 9bf0 ea35 d12f 292c 4902 b030 4e14 6e37
000002e0: c6fc 5732 29a6 8535 7941 2a2d 67d4 d92c
000002f0: e63b 0736 15f5 272c db6c c430 c6a1 5a37
00000300: f401 0000 f401 0000 f401 0000 f401 0000
00000310: f401 0000 f401 0000 f401 0000 f401 0000
0.0 0.0 0.0 0.0 0.0 0.0 0.0 0.0
0.00015670693 1.6692112e-06 7.636688e-11 1.9848952e-10 1.2421439e-05 1.3977335e-10 1.1956914e-07 2.4839371e-06
0.00014768614 1.5029433e-06 7.020519e-11 1.8260876e-10 1.1294982e-05 1.3032864e-10 1.07650926e-07 2.2361028e-06
0.0001939146 9.536893e-07 1.0182678e-10 1.14368584e-10 8.643887e-06 1.5203601e-10 6.834277e-08 1.4191625e-06
0.0005638138 6.286441e-05 2.5394475e-11 8.0440914e-12 7.060009e-05 1.1224069e-11 8.5910584e-10 4.1102817e-06
9.093182e-06 8.7645465e-05 6.255244e-11 1.2775755e-10 6.9650756e-05 6.322564e-11 5.0088596e-07 3.357489e-06
2.4995586e-06 2.9053345e-07 4.028033e-12 0.00010526691 4.124427e-06 1.5150605e-11 3.9523788e-05 1.0205033e-06
4.1201442e-06 7.940023e-07 1.705311e-11 0.00014397866 5.7965954e-06 2.1334707e-11 5.4403296e-05 5.2587384e-06
4.60158e-06 7.137476e-07 4.5582223e-12 9.997762e-05 7.1040376e-06 2.6931075e-11 3.7775393e-05 1.7135983e-06
1.3221534e-05 0.00015935994 4.4764116e-11 1.1545622e-10 5.5767152e-05 4.0483686e-11 6.0743866e-07 7.4706286e-06
1.1202577e-05 9.361527e-05 6.983045e-11 1.3777592e-10 8.766435e-05 8.453681e-11 5.000997e-07 4.204749e-06
8.990391e-06 7.38092e-05 4.9007288e-11 9.430847e-11 7.332548e-05 5.7609e-11 4.542925e-07 2.9597104e-06
3.185321e-05 1.0320048e-06 6.3246023e-12 0.00020469462 0.0001984333 1.9452159e-11 0.00038978204 1.1157791e-06
1.0078694e-05 4.5845092e-05 3.1052747e-11 6.3516484e-11 5.0214716e-05 2.7434052e-11 5.065716e-07 2.420775e-06
1.21501225e-05 0.00015562843 3.6891632e-11 1.1618912e-10 5.2969957e-05 3.9178473e-11 6.279006e-07 7.024329e-06
9.84978e-07 8.678048e-05 1.2096822e-12 4.027814e-11 1.2557892e-06 7.555202e-12 3.4561754e-08 1.0793623e-05
1.0616504e-05 5.247341e-05 1.0291466e-11 3.1741013e-11 0.00021745329 1.0226099e-11 1.3751819e-06 0.00018212637
1.1525089e-05 3.636963e-05 7.952733e-12 1.973595e-11 0.00017895548 8.269938e-12 1.2388547e-06 0.00015458328
1.5104686e-05 8.235733e-10 8.864697e-12 1.2778283e-09 0.0011683331 4.385565e-12 1.0751867e-09 5.9962244e-11
2.8397437e-05 6.5679345e-08 1.8012982e-12 1.15038335e-11 5.109378e-05 9.138085e-13 4.108187e-12 3.8025798e-11
2.972506e-08 2.3245143e-06 2.277678e-11 1.3448734e-11 4.7022445e-06 6.267547e-12 3.3541352e-09 2.1840013e-05
1.645721e-08 1.4635292e-06 1.3555832e-11 8.871544e-12 2.9654263e-06 3.037537e-12 2.016394e-09 2.1127022e-05
1.2177402e-08 8.658161e-07 8.052784e-12 6.751116e-12 1.7504384e-06 2.4042888e-12 1.2806335e-09 1.4190633e-05
1.2572121e-08 9.957631e-07 9.677919e-12 6.1910923e-12 2.0151433e-06 2.3868175e-12 1.4291816e-09 1.3031478e-05
7e-43 7e-43 7e-43 7e-43 7e-43 7e-43 7e-43 7e-43

exp_avg f4 [16, 8]
00000000: 626d adb5 d197 3637 d33e 7bb2 8873 d4b7
00000010: 998f 1cb6 30fc 7db2 df93 47b9 abd3 7736
00000020: a9fd 19bb 71b3 68b6 1cec c933 64a6 0537
00000030: 87a4 d1ba 3a7c 0cb4 c017 8eb6 03f6 16b4
00000040: adee 0f3a c10f 8638 a2a5 3535 e455 07b8
00000050: bc5a 1e39 bf8e 7eb2 bbbf 8fb9 0e65 7f39
00000060: 4072 ce1b 82df dd9b 8a23 759b a1b9 919b
00000070: 535c e79b 30c1 209b a025 2f9b 1187 071c
00000080: 0400 0000 0400 0080 0400 0000 0400 0080
00000090: 0400 0000 0400 0080 0400 0080 0400 0000
000000a0: 0400 0080 0400 0000 0400 0000 0400 0000
000000b0: 0400 0000 0400 0000 0400 0000 0400 0080
000000c0: 04d9 b439 7ffa adba 9a05 74b4 1fc4 c6b3
000000d0: 9ac0 6bb9 cff9 20b4 26d8 1935 e14a 7235
000000e0: ce76 70ba 6d67 03bb 6619 5936 f775 83b9
000000f0: 44fa d1ba d7b8 df36 52c4 af38 ded5 553b
00000100: f9d4 30b9 9c91 ef3b 73db 67b5 b44b 9fb5
00000110: 6be4 75bb a36a 03b6 ee37 0b38 5733 073c
00000120: 7502 443b 2c4f 3aba dba1 1e36 eda5 af3b
00000130: 4aec 0e3a 2d68 05b6 b55c 17b9 0c19 72ba
00000140: f419 5d3b d621 0fb8 169e 9db5 827b 14b5
00000150: f809 1c3a 0e43 a535 0553 2937 ad0e 92b8
00000160: 92b1 3f39 feec 6b38 1e5d 4533 6e46 0534
00000170: bc33 50b8 bca0 5d33 c31b a636 ed27 44b9
00000180: 43d6 6a39 ec64 78b6 9ce9 e433 c18f 3937
00000190: b6d6 84bb d061 9833 ba2d c3b6 21bb 3134
000001a0: 54e6 3a1b aadd 489b c6ed dd9a 7fed 039b
000001b0: 8774 519b c288 919a 5790 9e9a 3464 751b
000001c0: 72a8 5a3a 8b51 6eba e00d cbb5 8eb5 fb3b
000001d0: 2a17 5039 1e80 7c35 0168 b1b9 5380 42ba
000001e0: a998 d939 3b17 14bb 6f9c 5c35 74b2 9135
000001f0: 3999 a73a 511e 9733 2a4f 37b8 eaff 1eba
-1.2921339e-06 1.0883393e-05 -1.46244075e-08 -2.5326168e-05 -2.3329396e-06 -1.4783879e-08 -0.00019033205 3.6929075e-06
-0.002349714 -3.4675143e-06 9.40274e-08 7.966159e-06 -0.0015994468 -1.308371e-07 -4.2346946e-06 -1.4059337e-07
0.00054905826 6.392552e-05 6.766878e-07 -3.22665e-05 0.00015101855 -1.4817203e-08 -0.00027417936 0.00024356341
3.4153674e-22 -3.6705822e-22 -2.0277408e-22 -2.4108198e-22 -3.8275407e-22 -1.3297312e-22 -1.4487818e-22 4.484232e-22
6e-45 -6e-45 6e-45 -6e-45 6e-45 -6e-45 -6e-45 6e-45
-6e-45 6e-45 6e-45 6e-45 6e-45 6e-45 6e-45 -6e-45
0.00034493965 -0.0013273506 -2.2726309e-07 -9.255768e-08 -0.00022483096 -1.4992041e-07 5.731148e-07 9.026099e-07
-0.0009172977 -0.002005066 3.2350304e-06 -0.00025074158 -0.001602002 6.667436e-06 8.381218e-05 0.0032628695
-0.00016864006 0.007311059 -8.6373547e-07 -1.1868456e-06 -0.003752018 -1.9582592e-06 3.319227e-05 0.0082519865
0.002990869 -0.00071071344 2.3638047e-06 0.005360356 0.000545208 -1.9879183e-06 -0.00014435018 -0.00092352997
0.0033737393 -3.412537e-05 -1.1743421e-06 -5.5314024e-07 0.0005952413 1.2312973e-06 1.00925145e-05 -6.964556e-05
0.0001828133 5.6249082e-05 4.5952326e-08 1.2412212e-07 -4.9639246e-05 5.160176e-08 4.9504174e-06 -0.0001870689
0.00022395798 -3.7013624e-06 1.0659571e-07 1.106033e-05 -0.004053916 7.0958436e-08 -5.816776e-06 1.6552487e-07
1.5459982e-22 -1.6615236e-22 -9.17876e-23 -1.0912805e-22 -1.7325727e-22 -6.019154e-23 -6.558046e-23 2.0298302e-22
0.00083411403 -0.00090911303 -1.5128717e-06 0.007681555 0.00019845055 9.406375e-07 -0.0003383756 -0.00074196345
0.00041503206 -0.0022596854 8.218403e-07 1.0855279e-06 0.0012786753 7.037e-08 -4.3704327e-05 -0.0006065356

exp_avg_sq f4 [16, 8]
00000000: fa1a c531 ef09 d734 900e f12b 676b 1236
00000010: 3cf4 a032 bc6e 032c 3adf 0039 4caa 4533
00000020: fa70 4a3a 8699 6630 09a6 2c2d 449b e431
00000030: 6015 8b3a 1493 5d2c ca32 f930 c412 b42d
00000040: 7996 7b38 fdd6 8a39 d836 1f2f a432 5f36
00000050: b366 2839 4799 e02e c60f 4439 0c8c 2038
00000060: 0102 0000 2202 0000 f601 0000 f801 0000
00000070: 3e02 0000 f401 0000 f401 0000 0d05 0000
00000080: f401 0000 f401 0000 f401 0000 f401 0000
00000090: f401 0000 f401 0000 f401 0000 f401 0000
000000a0: f401 0000 f401 0000 f401 0000 f401 0000
000000b0: f401 0000 f401 0000 f401 0000 f401 0000
000000c0: 78ea 2639 a039 aa39 a283 5b2d b60a 302d
000000d0: e34a e537 352b a42d a1a1 352e 9a35 cd2e
000000e0: f827 0239 f395 e738 b57d 982f 0bfb de37
000000f0: 910b 8039 8f52 d52f 998d 6735 588a a839
00000100: b683 2834 d784 a23a e242 692f 7ee7 962f
00000110: 4ec7 2539 eaeb 512f d950 bc32 8529 fa39
00000120: 7b72 8339 a323 3438 8b61 9c2f b6fa c338
00000130: 9f06 3339 2f2c 992f 6fe8 a237 1543 f437
00000140: 6210 4439 58f9 b332 b55a 242f cc85 b62d
00000150: 018a c436 8623 1d2f 5123 1a31 c453 9a33
00000160: 20ba a237 5ccb 8c38 e426 132c 60da c62d
00000170: 6328 c935 408b 622c dbfe fa32 5df9 2a38
00000180: 70d4 6135 488c 762f 3f7f 152c 5552 0a31
00000190: a462 9039 a9bc e02a a0f5 1630 5006 a52c
000001a0: f401 0000 f401 0000 f401 0000 f401 0000
000001b0: f401 0000 f401 0000 f401 0000 f601 0000
000001c0: 587e 2536 6e2d f536 a3bb b92e 03b4 8f39
000001d0: 15bb 8d34 bc45 e12e 671e f438 87bf db35
000001e0: 798e 7139 e3ca c139 d19d e62f daa9 5b30
000001f0: 2fcf 133a c4a4 d32f 2965 a435 9354 9738
5.7365215e-09 4.0054098e-07 1.7128122e-12 2.1818212e-06 1.8737516e-08 1.867769e-12 0.0001229019 4.602252e-08
0.00077225233 8.389168e-10 9.813935e-12 6.653325e-09 0.0010611229 3.1487634e-12 1.813157e-09 2.0471964e-11
5.9983202e-05 0.0002648159 1.448045e-10 3.3259066e-06 0.00016059987 1.0213568e-10 0.00018697893 3.82774e-05
7.19e-43 7.65e-43 7.03e-43 7.06e-43 8.04e-43 7e-43 7e-43 1.812e-42
7e-43 7e-43 7e-43 7e-43 7e-43 7e-43 7e-43 7e-43
7e-43 7e-43 7e-43 7e-43 7e-43 7e-43 7e-43 7e-43
0.0001591834 0.0003246786 1.2477937e-11 1.000682e-11 2.73338e-05 1.866383e-11 4.129819e-11 9.331842e-11
0.00012412656 0.000110428686 2.773796e-10 2.6581363e-05 0.0002442268 3.8803136e-10 8.626026e-07 0.0003214653
1.5694135e-07 0.0012399208 2.1214988e-10 2.7449326e-10 0.00015809873 1.9092253e-10 2.1922846e-08 0.0004771465
0.00025071562 4.2948534e-05 2.8445543e-10 9.345023e-05 0.00017073237 2.7861932e-10 1.942014e-05 2.9118304e-05
0.0001869812 2.0951731e-08 1.4947939e-10 2.0750422e-11 5.857321e-06 1.4291687e-10 2.2430025e-09 7.186421e-08
1.9398576e-05 6.713599e-05 2.0911545e-12 2.2606972e-11 1.4987421e-06 3.219383e-12 2.9219725e-08 4.0763396e-05
8.412817e-07 2.2423408e-10 2.124481e-12 2.0128443e-09 0.00027539313 3.9921302e-13 5.4918736e-10 4.690283e-12
7e-43 7e-43 7e-43 7e-43 7e-43 7e-43 7e-43 7.03e-43
2.4660458e-06 7.3068577e-06 8.446157e-11 0.00027409205 2.6399417e-07 1.0244203e-10 0.000116404895 1.6372513e-06
0.00023036626 0.0003696299 4.1948892e-10 7.991311e-10 0.0005638478 3.849775e-10 1.2248394e-06 7.215994e-05

exp_avg f4 [16]
00000000: 9d7a 98b9 abd2 27bb f607 2eba 5e42 a79a
00000010: 0400 0000 0400 0000 ea5c 863a f323 ae3b
00000020: 4ade 6f3c e644 3f3c 7e14 8c3b 6abe 2e38
00000030: c2dc c6bb 486c 179a b709 2d3c fe3a 5bbb
-0.00029083053 -0.0025607746 -0.00066387595 -6.91768e-23 6e-45 6e-45 0.0010251079 0.005314344
0.0146404 0.0116741415 0.004274904 4.166217e-05 -0.006068797 -3.1313537e-23 0.010561398 -0.003345191

exp_avg_sq f4 [16]
00000000: cb74 9639 7495 173b c4dc 8b3a f401 0000
00000010: f401 0000 f401 0000 99fc 053a bc75 8f3a
00000020: 9e61 d53a 208c 853a a97d 9d39 3f7e 2339
00000030: 48cd 213a f401 0000 84b3 543a 9439 f93a
0.00028697247 0.0023129852 0.0010670652 7e-43 7e-43 7e-43 0.00051111873 0.0010945122
0.0016279703 0.0010188855 0.00030038998 0.00015591922 0.0006172252 7e-43 0.0008113908 0.0019014352

exp_avg f4 [16, 16]
00000000: b607 96b6 049c 093b 6b9e 85b9 0400 0080
00000010: 0400 0000 0400 0080 84fc bd38 0e2a 43bb
00000020: c12f d7bb b3e6 ab38 c736 bb38 95e9 ed39
00000030: 0859 e23a 0400 0000 fd61 ac3a 7d67 fdb9
00000040: aa8a a537 60b2 a7bb 2dc9 7738 0400 0080
00000050: 0400 0080 0400 0000 66f3 3aba 6dc3 9b39
00000060: c877 e939 f834 3a39 7729 1bb6 4cce 1bb8
00000070: 744c 85bb 0400 0080 ddda 6dba d130 7a38
00000080: 9183 0a36 d53a a237 3b6e 23b8 0400 0000
00000090: 0400 0080 0400 0080 c1b6 d836 7cd3 b4ba
000000a0: 878f 14bb 519b 0fb8 4127 1fb8 6385 b037
000000b0: 7c69 8537 0400 0080 cd34 24b9 e671 1bb7
000000c0: 631d c835 a192 3db9 1486 1cb9 0400 0080
000000d0: 0400 0080 0400 0000 0996 ceba 8ea4 4139
000000e0: c382 dc39 4817 2fb8 66a3 d432 0b7b afb8
000000f0: 438d 3539 0400 0080 e8cc 26b8 f22d d1b8
00000100: de89 6ab7 d944 38b8 fcc2 89b9 0400 0000
00000110: 0400 0080 0400 0000 9c34 b4b7 f54c 0d3a
00000120: 0069 ae3a 700d 6fba c99e 1bbb 9b11 bfb9
00000130: 73aa 17b8 0400 0080 e84a 803a 1907 0537
00000140: 569e 98b7 9976 c13a 146c 4c3a 0400 0080
00000150: 0400 0080 0400 0080 b1d5 6e38 c06f ad39
00000160: c795 253a 9cca 87b9 1b1e f0b9 3c22 cf38
00000170: 3c1b 9f3a 0400 0080 893f 9db9 aaf5 4e3a
00000180: 0000 0000 0000 0000 0000 0000 0000 0000
00000190: 0000 0000 0000 0000 0000 0000 0000 0000
000001a0: 0000 0000 0000 0000 0000 0000 0000 0000
000001b0: 0000 0000 0000 0000 0000 0000 0000 0000
000001c0: 1e44 d937 6340 6e39 3c5a 1fb9 0400 0000
000001d0: 0400 0080 0400 0000 ff32 28b8 aa28 4038
000001e0: eb2e e1b8 eb34 8fb9 f2da 25ba 3d85 80b9
000001f0: d2d6 4539 0400 0000 c19e 6c38 c325 cab9
00000200: 5931 db37 cbd5 45bb 5588 9eba c841 1a1c
00000210: 0400 0080 0400 0080 e07d 9bb9 f8cb 2b3b
00000220: d3e8 cc3b 4e32 e9ba 546d 4cbb 58a5 adba
00000230: 8045 21bb 82d7 721c b5e9 643a 4d23 1fba
00000240: 2bde 5937 fcc7 ab39 81bd 8839 0400 0080
00000250: 0400 0000 0400 0000 3dc1 e838 f63a aa3a
00000260: c758 413b 332a b5b8 a597 bf39 fd1d 15b9
00000270: 09cc 7639 0400 0000 2837 fbba 7109 e839
00000280: 0000 0000 0000 0000 0000 0000 0000 0000
00000290: 0000 0000 0000 0000 0000 0000 0000 0000
000002a0: 0000 0000 0000 0000 0000 0000 0000 0000
000002b0: 0000 0000 0000 0000 0000 0000 0000 0000
000002c0: f365 b635 ae31 deb0 a56f d734 0400 0080
000002d0: 0400 0080 0400 0000 a88c 63af d161 ecb6
000002e0: a38a d4b7 61b7 b3b7 c4db 2db9 8c13 8ab3
000002f0: d8bc b6b0 0400 0000 81b4 5439 717c 4131
00000300: b2b1 d4b7 8cad ba39 4bdb dab9 0400 0000
00000310: 0400 0080 0400 0000 57ae a53a f693 293b
00000320: b5b3 a63b 26a9 a4ba 9296 9abb a71f 62ba
00000330: 3404 06b6 0400 0000 0fd1 b9b9 4e27 a8b9
00000340: f69e cb35 be08 01bb 75b9 90ba 0400 0000
00000350: 0400 0080 0400 0000 cd3f eeb3 ad46 eb39
00000360: a2dc 7a3a c15c e2b9 4ef8 8eba 0bcf dfb5
00000370: d63c d4ba 0400 0080 19cc ad37 245b 80ba
00000380: d21c 19b7 a945 2ab7 c36a 003a 0400 0000
00000390: 0400 0080 0400 0080 9a19 e037 052f 2139
000003a0: baf5 173a fa6a 39ba f655 a9ba 1b58 c1b8
000003b0: 910e 0cb7 0400 0080 35f7 c2ba b885 843a
000003c0: 2c67 ceb5 2582 08b9 e132 1cb8 0400 0000
000003d0: 0400 0080 0400 0000 3268 5b39 8ef0 1bba
000003e0: d45b 51ba 90ef 8db7 d8c1 f6b4 8396 86b9
000003f0: 56ba 27b9 0400 0080 ba65 8539 4e14 bd38
-4.471246e-06 0.0020997534 -0.00025485767 -6e-45 6e-45 -6e-45 9.059257e-05 -0.0029779705
-0.006566972 8.1968865e-05 8.927058e-05 0.00045378195 0.0017268965 6e-45 0.0013151761 -0.00048333025
1.9734103e-05 -0.0051176995 5.907675e-05 -6e-45 -6e-45 6e-45 -0.0007131606 0.00029709507
0.00044530467 0.00017758075 -2.3120936e-06 -3.714701e-05 -0.004067952 -6e-45 -0.00090734457 5.965011e-05
2.0640184e-06 1.93393e-05 -3.896489e-05 6e-45 -6e-45 -6e-45 6.458577e-06 -0.0013795937
-0.0022668557 -3.4238506e-05 -3.7945112e-05 2.1042948e-05 1.5903956e-05 -6e-45 -0.00015659929 -9.265239e-06
1.4909714e-06 -0.00018079068 -0.00014927267 -6e-45 -6e-45 6e-45 -0.0015761267 0.00018467216
0.00042059095 -4.1744934e-05 2.4754353e-08 -8.367569e-05 0.00017314129 -6e-45 -3.9768318e-05 -9.9744546e-05
-1.3979587e-05 -4.3933138e-05 -0.0002627595 6e-45 -6e-45 6e-45 -2.148217e-05 0.00053901906
0.0013306439 -0.0009119129 -0.0023745766 -0.00036443476 -3.615995e-05 -6e-45 0.0009787949 7.92907e-06
-1.8193543e-05 0.0014760076 0.00077980873 -6e-45 -6e-45 -6e-45 5.6942637e-05 0.00033080392
0.0006316569 -0.00025900162 -0.00045798798 9.876906e-05 0.0012138854 -6e-45 -0.0002999271 0.0007894883
0.0 0.0 0.0 0.0 0.0 0.0 0.0 0.0
0.0 0.0 0.0 0.0 0.0 0.0 0.0 0.0
2.5900135e-05 0.00022721435 -0.00015197037 6e-45 -6e-45 6e-45 -4.0101815e-05 4.581424e-05
-0.00010737575 -0.00027314512 -0.0006326876 -0.00024513333 0.00018867411 6e-45 5.6414636e-05 -0.00038556577
2.6129814e-05 -0.0030187245 -0.0012095073 5.1039346e-22 -6e-45 -6e-45 -0.00029657688 0.0026214104
0.0062533407 -0.0017791481 -0.0031193094 -0.0013248129 -0.0024608076 8.034962e-22 0.0008732335 -0.0006070629
1.2985935e-05 0.00032764662 0.00026081133 -6e-45 6e-45 6e-45 0.000110986155 0.0012987542
0.0029502378 -8.638613e-05 0.00036543343 -0.00014220919 0.00023536397 6e-45 -0.0019166218 0.00044257523
0.0 0.0 0.0 0.0 0.0 0.0 0.0 0.0
0.0 0.0 0.0 0.0 0.0 0.0 0.0 0.0
1.3589728e-06 -1.6166746e-09 4.0128103e-07 -6e-45 -6e-45 6e-45 -2.0695501e-10 -7.0447354e-06
-2.5336927e-05 -2.1423855e-05 -0.00016580435 -6.429681e-08 -1.3295915e-09 6e-45 0.00020285138 2.8155933e-09
-2.5355115e-05 0.00035605987 -0.00041743586 6e-45 -6e-45 6e-45 0.0012640458 0.0025875545
0.0050873407 -0.0012562617 -0.0047176564 -0.00086259324 -1.9970003e-06 6e-45 -0.0003544171 -0.0003207274
1.5170942e-06 -0.0019689049 -0.0011041599 6e-45 -6e-45 6e-45 -1.1094344e-07 0.0004487535
0.000956962 -0.00043175186 -0.0010907741 -1.6675052e-06 -0.0016192447 -6e-45 2.0718247e-05 -0.0009792787
-9.126221e-06 -1.0149009e-05 0.0004898721 6e-45 -6e-45 -6e-45 2.6714803e-05 0.00015371673
0.0005796809 -0.00070731307 -0.0012919295 -9.219368e-05 -8.348042e-06 -6e-45 -0.0014874699 0.0010110652
-1.5378223e-06 -0.00013018453 -3.7240683e-05 6e-45 -6e-45 6e-45 0.00020924283 -0.0005948626
-0.0007986401 -1.6920065e-05 -4.596211e-07 -0.00025670612 -0.00015995777 -6e-45 0.0002544353 9.016004e-05
