code/CAV_OBJECT__DETECTION/distance_model_checkpoint_class0_only.pth (torch, 85238 bytes, 39 tensors)

layers.0.weight f4 [32, 6]
-1.4936725 0.0918118 -0.78785497 0.5479276 -0.5091126 -0.2780647 0.16725989 -0.2601373
0.13791262 -0.22792187 -0.32238412 -0.2505725 0.3313458 -1.9090744 0.5586519 -0.30879104
-0.49462062 0.25652203 0.077778146 0.41465995 -3.3172104 -4.0364876 -6.122687 0.5627814
1.1352515 -0.29276052 -1.242268 -3.2487273 -3.3221843 0.61692125 -0.02019571 -0.30248684
-2.310765 -4.470018 -7.23938 0.79790175 -0.04058691 -0.18961833 0.1949672 -4.792979
-4.3846183 1.2866478 -0.29900467 -0.97060895 2.3499706 4.0607677 5.1052904 -0.44193006
1.0855851 -0.18153371 -2.3537369 -1.7371067 -1.4287558 -1.2077365 -0.1692495 -0.36388683
0.72856575 1.7358598 0.48473728 -2.2527626 -0.32743478 -0.22291647 -0.033789102 -0.039007127
-0.3450632 -0.19385941 -0.5278783 0.12782377 -2.892711 -1.9858547 -3.9833663 -0.22937536
0.61487025 0.06928482 2.3753228 3.3645766 6.231376 0.3287306 0.08310572 -0.041612394
-0.21385908 -0.3437033 0.13746832 -0.059267234 0.010767757 0.11385437 -1.4734226 -4.8853893
-6.4162073 1.1276166 -0.29345572 -0.07024813 0.19569468 0.116858885 -0.07822751 0.26116022
-0.027245179 -0.44310594 -0.40881646 -0.7951843 -1.5695529 0.37226188 0.118124664 0.0755866
-0.03179551 -0.11617998 -0.36002555 0.12706965 -0.5121072 0.69392437 1.7205584 3.3908257
4.7539034 -0.03645806 -0.08922896 -0.09913599 -3.4671874 -4.149393 -7.8118124 0.41770858
-0.15030567 1.1612116 -0.51123846 -3.4346626 -2.407893 0.6746031 0.06821124 -0.9826306
-1.9672434 -1.4578496 -4.4170785 0.3819354 -1.5161622 0.17539231 -1.631626 -0.6808295
-3.085374 -0.10488283 -0.20624019 -0.022788025 0.23288289 0.19212039 -0.086176924 -0.28917477
-0.5034618 0.0703537 2.5603464 3.2476776 6.4572496 0.23109807 -0.06676063 0.028278217
0.12610224 -0.12527916 0.03325701 0.25792387 -0.44203806 -0.2672282 -0.5059252 -4.3546724
-5.6467643 1.1346085 0.16021134 -0.09996711 0.14868282 0.3672105 -0.118677765 -0.28620595
1.5992923 -0.572698 -0.324716 0.92289215 -0.5478577 -1.118419 0.0052345768 1.2352698
1.9214088 -1.1922592 0.82707214 -0.9673916 0.026405025 0.76427186 2.2141862 3.414442
6.552596 -0.4586629 -0.98695564 -0.22799733 -1.1027786 -0.9137438 -1.1344349 -0.4738424
00000000: a930 bfbf d307 bc3d ddb0 49bf fc44 0c3f
00000010: 3455 02bf 7f5e 8ebe 2d46 2b3e b730 85be
00000020: f738 0d3e 5a64 69be 880f a5be 0a4b 80be
00000030: 28a6 a93e 8d5c f4bf d003 0f3f dc19 9ebe
00000040: ea3e fdbe db56 833e 264a 9f3d 4f4e d43e
00000050: 2d4d 54c0 e82a 81c0 0ded c3c0 7112 103f
00000060: ec4f 913f b5e4 95be a302 9fbf 26eb 4fc0
00000070: ab9e 54c0 8dee 1d3f 7971 a5bc 8edf 9abe
00000080: 93e3 13c0 630a 8fc0 00a9 e7c0 4a43 4c3f
00000090: 763e 26bd 4f2b 42be 7ba5 473e 1560 99c0
000000a0: cb4e 8cc0 e0b0 a43f 2417 99be d479 78bf
000000b0: eb65 1640 cff1 8140 8a5e a340 a844 e2be
000000c0: 74f4 8a3f f9e3 39be a0a3 16c0 8359 debf
000000d0: 78e1 b6bf 1c97 9abf be4f 2dbe 604f babe
000000e0: 4983 3a3f a730 de3f 7c2f f83e 432d 10c0
000000f0: 88a5 a7be 3744 64be 7166 0abd f0c5 1fbd
00000100: 20ac b0be 1583 46be 0823 07bf 3ce4 023e
00000110: 2d22 39c0 7d30 febf 79ef 7ec0 60e1 6abe
00000120: 2368 1d3f 33e5 8d3d 4a05 1840 3955 5740
00000130: 6f67 c740 614f a83e 5533 aa3d c271 2abd
00000140: e0fd 5abe e1f9 afbe 7fc4 0c3e 33c2 72bd
00000150: 3f6b 303c 7b2c e93d 1d99 bcbf 1c55 9cc0
00000160: 9251 cdc0 be55 903f d43f 96be 40de 8fbd
00000170: 3064 483e b653 ef3d bf35 a0bd cbb6 853e
00000180: 4831 dfbc c8de e2be 6450 d1be 3391 4bbf
00000190: 1ce7 c8bf 1c99 be3e 58eb f13d 26cd 9a3d
000001a0: 023c 02bd c5ef edbd 4555 b8be 8c1e 023e
000001b0: 7519 03bf 07a5 313f 423b dc3f 4a03 5940
000001c0: fa1f 9840 0c55 15bd acbd b6bd cf07 cbbd
000001d0: 66e6 5dc0 d4c7 84c0 5efa f9c0 e6dd d53e
000001e0: bbe9 19be 95a2 943f 86e0 02bf 83d1 5bc0
000001f0: eb1a 1ac0 cab2 2c3f 56b2 8b3d ae8d 7bbf
00000200: a2ce fbbf d19a babf b558 8dc0 098d c33e
00000210: 9a11 c2bf 0b9a 333e 1fd9 d0bf d84a 2ebf
00000220: c576 45c0 cfcc d6bd a130 53be f4ad babc
00000230: da78 6e3e 35bb 443e 877d b0bd b70e 94be
00000240: dfe2 00bf 9a15 903d b7dc 2340 f3d9 4f40
00000250: caa1 ce40 f9a4 6c3e ccb9 88bd b8a7 e73c
00000260: f220 013e 2e49 00be 8138 083d 990e 843e
00000270: d052 e2be 22d2 88be 5084 01bf 7a59 8bc0
00000280: 4bb2 b4c0 da3a 913f 710e 243e 8ebb ccbd
00000290: 4f40 183e 0403 bc3e 540d f3bd 9689 92be
000002a0: 9cb5 cc3f 569c 12bf 2d41 a6be a942 6c3f
000002b0: 6740 0cbf 5b28 8fbf d086 ab3b 521d 9e3f
000002c0: b9f0 f53f f39b 98bf 00bb 533f faa6 77bf
000002d0: 5a4f d83c 52a7 433f 3ab5 0d40 3886 5a40
000002e0: deae d140 ddd5 eabe 20a9 7cbf 2278 69be
000002f0: d927 8dbf 1deb 69bf 2a35 91bf 799b f2be

layers.0.bias f4 [32]
0.5724477 -0.32230026 0.49666488 0.01792626 -0.51356685 0.21518673 -0.4505312 0.629377
-0.072739385 0.74413246 -0.2824102 0.6067649 -0.5929175 -0.08139889 -0.26362592 -0.28182685
-0.11909687 -0.32975182 -0.25435886 0.48106444 -0.68088263 0.65238047 0.8057452 -0.26749438
-0.038393494 -0.28917292 0.056183256 -0.36165988 -0.09533189 -0.534475 -0.33864358 0.63391036
00000000: ef8b 123f 8a04 a5be dc4a fe3e 18da 923c
00000010: 1e79 03bf e959 5c3e 07ac e6be da1e 213f
00000020: 63f8 94bd 777f 3e3f 1298 90be f254 1b3f
00000030: 71c9 17bf 76b4 a6bd faf9 86be 9c4b 90be
00000040: 0fe9 f3bd 3bd5 a8be 533b 82be 144e f63e
00000050: 534e 2ebf 6802 273f 5145 4e3f 06f5 88be
00000060: 7f42 1dbd 790e 94be 6a20 663d 7c2b b9be
00000070: 5e3d c3bd 5bd3 08bf b162 adbe f347 223f

layers.2.weight f4 [32, 32]
0.8763701 0.13186075 1.5509298 -1.1902415 -0.06440524 -1.0068083 0.19415914 0.4921438
-0.5232813 -0.9795104 -0.08629338 -0.009843752 -0.004639796 -0.00014822377 -1.2425882 0.056314237
0.07010974 -0.024258124 -0.3446799 0.14666103 -2.6942306 0.44965506 -1.748232 -0.03301032
0.34194288 -0.14891694 -0.08228067 0.11616116 0.18953949 1.7596421 -0.44613037 -0.24010809
-1.2693682 -0.121416196 -0.804172 -0.6612115 -0.3432379 0.5097329 -0.39317003 -0.7093477
-0.9921991 -0.07759743 -0.15376344 0.118585356 -0.2446455 0.15762676 0.4662994 0.015945312
0.6547232 -0.13889231 0.032809913 -0.21265468 -0.6493498 -0.42522347 -0.9805708 -0.08308147
-0.19571579 -0.06606182 1.0448685 -0.023203546 0.8400256 1.8457321 0.82556593 -0.4134022
0.57445467 -0.12211731 0.061638962 -0.4842614 -0.008220953 -1.8051838 0.20220631 -0.943964
1.3940601 -0.6567322 -0.13886677 -1.1613297 0.94376093 0.31773627 -1.3758296 0.17676821
0.53232956 -0.05695624 -0.5663995 1.1504484 1.119649 0.24256273 1.2628803 -0.08775916
-0.5180498 0.028637713 0.76875156 0.10694777 1.9708972 -0.32009953 0.18246028 -2.2479403
0.34617957 -0.1613151 -0.3530996 2.4073958 -0.32979983 1.4703594 -2.445166 -1.0403738
0.6963722 0.039224107 0.0010414064 0.5276232 -1.3561549 0.011042683 -1.4989102 0.13762985
0.66478217 -0.15659216 -0.38410744 2.5570176 0.113560274 0.12022947 -0.076598056 -0.02295092
-1.1581862 -0.14654322 -0.17651781 0.14043726 0.43400192 1.8437438 -0.63535744 2.2726886
-0.25112808 -0.06321199 0.22700778 1.3563224 -0.6491739 -0.024905512 0.79795504 0.7658787
0.23603305 -0.22576958 -0.00764586 -2.9901288 0.97478735 -0.17196916 -0.56020665 0.053877644
0.14883263 -0.05217215 1.2222157 -10.168628 -0.3499518 -0.26600718 -1.8748301 0.11511096
1.085896 -0.10559364 -0.038097214 -0.09983969 -0.74424565 0.25563112 0.6609778 -2.9402847
0.6461294 -0.069673456 1.6830069 -1.4007502 -0.07217115 0.20243616 0.40870735 0.62113315
-0.5969096 1.0055448 0.009962714 1.0302956 -1.7757393 -0.20375904 1.6012442 0.09432852
-0.7769088 -0.086523116 -0.064000756 0.06551644 -0.14213258 0.04597188 0.68880206 -0.082267426
-0.09806413 -0.020533515 1.0191195 -0.09534359 -0.3286595 -0.91099626 -0.6116345 0.84361887
0.4930326 -0.091501504 0.012811912 -2.1932902 -0.83960223 -1.9629636 -1.9734832 0.9865298
-1.013335 -1.9590305 -0.02872135 -0.28007573 0.57125056 -0.0030694313 -1.9543642 -0.06335364
-0.35755846 -0.04964907 0.42045873 -2.2710803 -0.45549062 0.11309461 -0.80714524 -0.14516312
0.46464285 0.0081315385 -0.99791247 0.020310882 -0.28291237 0.21280198 0.7470699 1.3297242
-0.2027913 0.12318558 -0.13666242 -0.11697594 -0.15757808 0.022947706 -0.044061597 -0.03623881
-0.103937544 -0.015957741 -0.058206588 -0.121330105 0.06614558 -0.17530975 0.13118872 -0.038728442
-0.13981718 -0.16052917 0.02597723 0.121011525 -0.10551195 0.043918163 0.067908294 0.045742415
-0.054565284 -0.15755501 -0.029280763 0.012446596 -0.16184409 -0.13795233 0.033561658 -0.069365166
00000000: ca59 603f 8106 073e de84 c63f d559 98bf
00000010: e5e6 83bd 18df 80bf a7d1 463e 46fa fb3e
00000020: c3f5 05bf 32c1 7abf 95ba b0bd b047 21bc
00000030: 6e09 98bb 846c 1bb9 210d 9fbf c2a9 663d
00000040: b295 8f3d f9b8 c6bc e279 b0be 4f2e 163e
00000050: 466e 2cc0 3039 e63e 11c6 dfbf d435 07bd
00000060: 2313 af3e af7d 18be c582 a8bd e7e5 ed3d
00000070: a416 423e f43b e13f 336b e4be e5de 75be
00000080: a87a a2bf 0ea9 f8bd 37de 4dbf 2845 29bf
00000090: e1bc afbe db7d 023f 954d c9be d097 35bf
000000a0: c300 7ebf 67eb 9ebd 2a74 1dbe e1dc f23d
000000b0: 5a84 7abe e968 213e ccbe ee3e be9f 823c
000000c0: f19b 273f c939 0ebe b063 063d 26c2 59be
000000d0: ca3b 26bf e4b6 d9be b006 7bbf 9e26 aabd
000000e0: b869 48be 6b4b 87bd 40be 853f 5d15 bebc
000000f0: eb0b 573f f340 ec3f 4a58 533f 74a9 d3be
00000100: 760f 133f a418 fabd 2379 7c3d 1cf1 f7be
00000110: 2db1 06bc 4310 e7bf 2c0f 4f3e a0a7 71bf
00000120: 9070 b23f 9a1f 28bf 1733 0ebe 74a6 94bf
00000130: 519a 713f 54ae a23e 2f1b b0bf ba02 353e
00000140: c046 083f f24a 69bd 8fff 10bf e541 933f
00000150: a950 8f3f 5d62 783e 10a6 a13f 13bb b3bd
00000160: e99e 04bf a399 ea3c e7cc 443f 6f07 db3d
00000170: 5c46 fc3f 16e4 a3be ded6 3a3e 41de 0fc0
00000180: 733e b13e c92f 25be 79c9 b4be c612 1a40
00000190: 86db a8be bd34 bc3f 9a7d 1cc0 f82a 85bf
000001a0: 7345 323f 75a9 203d cd7f 883a 5012 073f
000001b0: 7c96 adbf 5fec 343c 4adc bfbf d7ee 0c3e
000001c0: 2a2f 2a3f b259 20be bba9 c4be 2da6 2340
000001d0: 4a92 e83d de3a f63d 71df 9cbd 9103 bcbc
000001e0: 723f 94bf 6d0f 16be 16c1 34be c9ce 0f3e
000001f0: 8035 de3e ccff eb3f c9a6 22bf bb73 1140
00000200: dc93 80be 4a75 81bd ba74 683e f99b ad3f
00000210: 4330 26bf a506 ccbc c846 4c3f a010 443f
00000220: a6b2 713e 2430 67be 1f8a fabb 455e 3fc0
00000230: aa8b 793f af18 30be b469 0fbf ceae 5c3d
00000240: 9567 183e 77b2 55bd 9071 9c3f b3b2 22c1
00000250: e22c b3be 1832 88be 6ffa efbf 4cbf eb3d
00000260: a4fe 8a3f 7a41 d8bd d30b 1cbd c078 ccbd
00000270: e286 3ebf 15e2 823e d735 293f a02d 3cc0
00000280: bd68 253f f5b0 8ebd c56c d73f c84b b3bf
00000290: 78ce 93bd 6d4b 4f3e 1742 d13e 9502 1f3f
000002a0: 11cf 18bf b1b5 803f a73a 233c bae0 833f
000002b0: 6d4b e3bf 36a6 50be 92f5 cc3f 502f c13d
000002c0: 7fe3 46bf 0833 b1bd d412 83bd 7c2d 863d
000002d0: 348b 11be 034d 3c3d 5555 303f d37b a8bd
000002e0: d9d5 c8bd e735 a8bc 8272 823f 8043 c3bd
000002f0: 0f46 a8be 0d37 69bf 1494 1cbf 68f7 573f
00000300: c56e fc3e 2465 bbbd 0ee9 513c de5e 0cc0
00000310: 2cf0 56bf 6442 fbbf 199b fcbf 388d 7c3f
00000320: f6b4 81bf 83c1 fabf 0949 ebbc 1666 8fbe
00000330: 7a3d 123f 8328 49bb 9b28 fabf 8ebf 81bd
00000340: e711 b7be d35c 4bbd 5e46 d73e 6159 11c0
00000350: 1136 e9be 269e e73d 12a1 4ebf a4a5 14be
00000360: abe5 ed3e 253a 053c 3177 7fbf 0263 a63c
00000370: e4d9 90be c3e8 593e f93f 3f3f 6734 aa3f
00000380: 86a8 4fbe b948 fc3d 3cf1 0bbe 1591 efbd
00000390: 265c 21be d4fc bb3c ef79 34bd 256f 14bd
000003a0: 35dd d4bd cfb9 82bc 086a 6ebd eb7b f8bd
000003b0: 5577 873d 6684 33be 5656 063e b7a1 1ebd
000003c0: 3c2c 0fbe c261 24be 33ce d43c e4d4 f73d
000003d0: a616 d8bd 88e3 333d 8113 8b3d 665c 3b3d
000003e0: d97f 5fbd 1a56 21be 36de efbc cfec 4b3c
000003f0: 75ba 25be 6043 0dbe f377 093d 530f 8ebd

layers.2.bias f4 [32]
-0.097216435 0.70104176 -0.5048379 0.095191024 -1.2269809 0.1687504 0.54075795 -0.0861459
0.03795308 0.021625964 -0.1717336 0.26650816 -0.09949459 0.4017001 -0.18806686 0.18908209
-0.14060819 -0.2566368 -0.037201 -0.54180187 -0.18938777 -0.6581141 0.13810478 -1.3591127
-0.0074929786 -0.05852872 -0.5845854 -0.20929512 -0.13716023 -0.008454876 0.661025 -0.1770668
00000000: 6919 c7bd 7977 333f 0e3d 01bf 83f3 c23d
00000010: b60d 9dbf e8cc 2c3e 1d6f 0a3f 436d b0bd
00000020: b074 1b3d ef28 b13c efda 2fbe c273 883e
00000030: d2c3 cbbd a3ab cd3e 9994 40be bc9e 413e
00000040: 98fb 0fbe e665 83be 1360 18bd 87b3 0abf
00000050: deee 41be 2a7a 28bf 576b 0d3e 68f7 adbf
00000060: a987 f5bb d0bb 6fbd 64a7 15bf 7651 56be
00000070: bb73 0cbe 5286 0abc ef38 293f 0051 35be

layers.4.weight f4 [32, 32]
0.5607289 0.8657226 -0.061781973 -1.8200282 -0.49860853 -0.7408827 2.1900654 -0.048771642
-0.114664786 0.09157952 0.000506319 -2.0784369 -0.12554243 0.96639127 -0.077584274 -0.6274431
-0.17274079 -0.18937086 -0.07282001 -2.2466042 0.005901595 1.9434291 -2.6367316 4.355638
0.07974629 -1.3060699 0.25522983 0.053214557 -0.512374 0.03408546 0.72147495 0.067037575
-3.8581667 0.35560155 1.5356636 0.38486785 1.5200711 -0.45300585 -0.073735185 0.06116903
0.12566856 -0.024636855 0.12044408 0.97106975 0.096687675 0.06858895 -0.08590994 -0.9733039
0.15738021 0.033621866 -0.73021626 -0.12196053 -0.15462783 0.3939579 0.37657595 -0.57868385
0.0071349554 0.242 -0.18573269 0.06156645 -5.21305 -0.012415113 -0.55516505 -0.06511399
-0.28539956 -1.756151 0.10256262 0.33256343 1.5484142 1.0366943 -1.5870268 0.026904974
-0.039969202 -0.05555798 0.036335956 -0.31234866 -0.14697587 0.34008095 -0.034350365 -0.5194898
0.121814586 0.15123425 0.6363767 0.0649765 0.027051369 0.109225705 1.236895 -1.3341568
-0.065775365 -0.4282845 1.0189769 0.1436729 -3.5205219 -0.17888094 -0.59479886 -0.04695612
-0.8709763 0.3193857 -0.25794655 -0.25965515 0.2484083 0.2787799 2.4848726 -0.16384564
-0.12321541 -0.066590324 0.08888765 0.08150885 0.07511527 0.5171163 -0.030971086 0.7440435
0.10468074 -0.04287576 -0.53961056 -0.54685265 -0.02627925 -3.1076972 0.11282981 -1.6421112
0.0048769694 -1.5317247 -0.21029058 -0.3169413 -0.24341199 -0.1608738 0.8023384 -0.13626882
0.15941134 -0.024181139 -0.17317136 -0.08711763 -0.06291496 -0.11038977 -0.05345501 -0.07719393
0.08510374 0.03850922 0.015459696 -0.17469351 0.15699264 -0.24460468 0.14576305 -0.19831245
-0.018951394 -0.011955333 0.10912839 -0.06852314 0.14254445 -0.06133573 -0.010978161 -0.08872447
0.10146049 -0.18907987 -0.12435129 -0.11579754 -0.003620903 0.027004272 0.041425616 0.08206417
-0.0067673298 -0.047389597 0.030245345 0.06348539 -0.027522882 0.035573464 0.0017176737 0.14305511
-0.16944443 -0.07648884 0.06503722 0.012321664 -0.07341273 0.086065225 -0.0847398 -0.03485088
-0.041993856 0.13756923 0.03218413 -0.15828365 0.06272871 -0.22383252 -0.1154424 -0.19528618
-0.021680571 0.057460133 -0.026574409 -4.7373058e-05 -0.07064485 0.053585947 0.044322833 -0.068961136
-0.124431826 0.060290005 -0.12816831 -0.035705414 -0.12761949 -0.027470466 -0.004548675 -0.027169544
-0.1696967 -0.032160174 -0.0036036186 -0.0068524964 -0.061741613 -0.22442034 -0.10317161 -0.22409335
-0.16240019 0.12503843 0.05150458 -0.3234103 -0.020505074 -0.29880103 0.061899453 -0.22707841
-0.0517569 0.04604005 -0.26489183 -0.0123969475 -0.15172969 0.05973715 0.059022848 0.006405689
-1.0513952 0.5578512 -4.0820026 2.1766613 1.7316928 -0.027843772 0.048513073 -0.024015758
-0.16109674 0.037322927 0.15155265 -1.077721 0.052223127 -0.47116897 -0.018143473 -0.12229536
-0.072107084 0.36871913 0.21704192 -0.27706912 0.05419101 -1.1412652 0.047203936 -4.7762513
0.11523603 -2.6476467 -0.57619053 0.081544705 -0.62613916 0.13613121 -0.8361958 0.11727679
00000000: ee8b 0f3f ff9f 5d3f 180f 7dbd aff6 e8bf
00000010: 9e49 ffbe 7daa 3dbf 082a 0c40 c6c4 47bd
00000020: 5fd5 eabd 0b8e bb3d 7eba 043a 1c05 05c0
00000030: 328e 00be 6b65 773f 81e4 9ebd 1ca0 20bf
00000040: f6e2 30be 6fea 41be a822 95bd 5dc8 0fc0
00000050: 2b62 c13b 49c2 f83f 36c0 28c0 6361 8b40
00000060: 0652 a33d 4c2d a7bf 7cad 823e 82f7 593d
00000070: f12a 03bf 329d 0b3d 95b2 383f ff4a 893d
00000080: 34ec 76c0 6811 b63e a090 c43f 660d c53e
00000090: b191 c23f 62f0 e7be 7902 97bd 608c 7a3d
000000a0: 42af 003e 3bd3 c9bc 63ab f63d 0798 783f
000000b0: 3004 c63d 5d78 8c3d 8df1 afbd 722a 79bf
000000c0: 4728 213e 15b7 093d 74ef 3abf 71c6 f9bd
000000d0: c256 1ebe dab4 c93e 90ce c03e a024 14bf
000000e0: 58cc e93b d9ce 773e b630 3ebe 1a2d 7c3d
000000f0: 4ed1 a6c0 c268 4bbc 4c1f 0ebf 7c5a 85bd
00000100: e41f 92be 8ec9 e0bf 5a0c d23d c145 aa3e
00000110: 7032 c63f 66b2 843f b223 cbbf d267 dc3c
00000120: bfb6 23bd c490 63bd 03d5 143d 2aec 9fbe
00000130: d880 16be 171f ae3e f8b2 0cbd 49fd 04bf
00000140: ed79 f93d 27dd 1a3e 95e9 223f 6612 853d
00000150: d59a dd3c bab1 df3d 9352 9e3f a6c5 aabf
00000160: 3cb5 86bd 1b48 dbbe d66d 823f fd1e 133e
00000170: 3b50 61c0 912c 37be bd44 18bf 0f55 40bd
00000180: 4ef8 5ebf 8686 a33e 9211 84be 85f1 84be
00000190: bf5e 7e3e 3dbc 8e3e 2708 1f40 27c7 27be
000001a0: 5c58 fcbd 8260 88bd ba0a b63d 1dee a63d
000001b0: 09d6 993d bc61 043f 13b7 fdbc a379 3e3f
000001c0: db62 d63d 7e9e 2fbd eb23 0abf 89fe 0bbf
000001d0: 9547 d7bc 83e4 46c0 5113 e73d b330 d2bf
000001e0: fcce 9f3b 8e0f c4bf 6a56 57be 2146 a2be
000001f0: fe40 79be 1abc 24be 0d66 4d3f 0e8a 0bbe
00000200: ba3c 233e 8617 c6bc d553 31be ba6a b2bd
00000210: 8fd9 80bd 0814 e2bd a4f3 5abd da17 9ebd
00000220: df4a ae3d d8bb 1d3d aa4a 7d3c dbe2 32be
00000230: aec2 203e a679 7abe e942 153e 6b12 4bbe
00000240: f43f 9bbc 4de0 43bc b57e df3d dc55 8cbd
00000250: 2cf7 113e 2d3b 7bbd bfdd 33bc 2db5 b5bd
00000260: 84ca cf3d 279e 41be e4ab febd 4327 edbd
00000270: ac4c 6dbb 1038 dd3c e8ad 293d 4211 a83d
00000280: 7ac0 ddbb 981b 42bd 16c5 f73c a104 823d
00000290: ab77 e1bc 7bb5 113d 9123 e13a 0a7d 123e
000002a0: d782 2dbe 2ea6 9cbd 3c32 853d cee0 493c
000002b0: 6a59 96bd f742 b03d 0f8c adbd ccbf 0ebd
000002c0: c001 2cbd f3de 0c3e 82d3 033d 1c15 22be
000002d0: e977 803d 5a34 65be 116d ecbd 1af9 47be
000002e0: 749b b1bc 515b 6b3d 93b2 d9bc 6fb2 46b8
000002f0: 3fae 90bd f07c 5b3d dc8b 353d 7f3b 8dbd
00000300: 1dd6 febd a7f2 763d 8e3e 03be d73f 12bd
00000310: afae 02be be09 e1bc 0d0d 95bb aa92 debc
00000320: f9c4 2dbe 63ba 03bd b02a 6cbb e88a e0bb
00000330: c6e4 7cbd 72ce 65be a34b d3bd ba78 65be
00000340: 3c4c 26be 130a 003e 77f6 523d 0996 a5be
00000350: 42fa a7bc 73fc 98be 488a 7d3d 3e87 68be
00000360: 0bff 53bd 7e94 3c3d e79f 87be 911c 4bbc
00000370: 075f 1bbe f1ae 743d f1c1 713d d0e6 d13b
00000380: 1e94 86bf 56cf 0e3f c49f 82c0 6b4e 0b40
00000390: 1ca8 dd3f 9f18 e4bc a5b5 463d b2bc c4bc
000003a0: 8bf6 24be eddf 183d 9e30 1b3e c3f2 89bf
000003b0: ebe7 553d 0f3d f1be 9fa1 94bc fd75 fabd
000003c0: e1ac 93bd c1c8 bc3e 3d40 5e3e 01dc 8dbe
000003d0: 64f7 5d3d fa14 92bf ea58 413d 0dd7 98c0
000003e0: de00 ec3d 0b73 29c0 3981 13bf e900 a73d
000003f0: a84a 20bf fb65 0b3e ee10 56bf d02e f03d

layers.4.bias f4 [32]
0.24674848 -0.67390656 -0.5016263 1.2082443 -0.06403318 -0.22923319 -0.17954004 -0.010290484
-0.24256973 0.9561206 -0.096661925 0.33809367 0.19947211 0.71853524 0.47988668 -0.0039300276
-0.19715436 -0.1929271 0.27280858 -0.36348087 0.2957481 0.02202883 -0.42162973 -1.1402744
-0.2762643 -0.9150075 -0.28380114 -0.15900092 0.2923552 0.34172162 -0.13591966 -0.29385042
00000000: a2ab 7c3e 2485 2cbf 956a 00bf c0a7 9a3f
00000010: d423 83bd 1bbc 6abe 58d9 37be 6b99 28bc
00000020: 3364 78be 52c4 743f b0f6 c5bd 9d1a ad3e
00000030: 6b42 4c3e edf1 373f b5b3 f53e 76c7 80bb
00000040: d5e2 49be af8e 45be 91ad 8b3e 2a1a babe
00000050: 4c6c 973e ce75 b43c dadf d7be 83f4 91bf
00000060: 8472 8dbe ee3d 6abf 624e 91be 23d1 22be
00000070: 95af 953e 23f6 ae3e 862e 0bbe 9073 96be

layers.6.weight f4 [32, 32]
0.04511296 0.07493311 -0.07144079 -0.12149189 -0.062842846 0.07714458 0.09122495 -0.16055934
-0.116811715 0.11191166 -0.0096525345 -0.13796891 -0.012803163 -0.16638467 -0.17299551 -0.06755776
0.044768486 -0.14248233 0.12923284 -0.02879654 -0.215701 -0.08325282 -0.071229436 0.013414733
-0.1691732 0.105134614 -0.15605381 -0.06204191 0.038359188 0.023356214 0.053077273 0.10603603
0.5624481 -0.4044488 1.1488804 -1.7104048 -0.09700017 0.16323408 0.049630187 1.0433555
0.059154913 -1.1863254 -0.050864797 0.11380665 0.5636963 0.67809665 0.6943995 0.16525713
-0.10118396 0.0834173 -0.4577794 0.27563748 -0.5184993 1.9727142 0.122788034 -0.8644144
-0.12423298 0.5445314 0.59579915 -0.013765161 -0.24965808 0.5375392 0.008437673 -0.075877205
-0.12615125 -0.097336315 0.020570057 -0.12549797 -0.15234777 -0.09835049 0.13729888 0.041597802
0.06613319 -0.11158118 -0.12658656 -0.14538965 -0.0114967385 0.0057688756 -0.16141048 -0.01266302
0.030211788 0.04194216 -0.07948892 -0.022723759 -0.21802643 -0.043117788 0.07275137 -0.14901307
0.10714852 -0.14061642 -0.07827736 0.11117422 0.034734216 0.08857816 0.16421206 0.17174853
-0.3242771 -3.835783 0.6798778 0.021090236 0.17076576 -0.12027662 -0.032526735 -3.148634
-0.29517135 0.20633742 0.114069454 -2.324241 -1.109849 -0.13754568 1.3710752 0.40389717
-0.10344006 -0.04225333 -0.6661714 0.78405166 -0.34441975 -0.57590294 0.07797947 -0.14684163
0.055601623 1.4045601 0.34138307 -0.097480305 -0.5749519 0.34463146 0.1116201 -0.06235159
-0.08148745 0.03128496 -0.19802749 -0.1225612 -0.051058523 0.11261589 -0.14878654 -0.028746594
0.030937618 -0.0747103 -0.10638954 -0.18269242 0.110633574 -0.050501183 0.009467007 -0.12937683
-0.1303655 -0.06651757 -0.16957822 0.10595611 -0.10304086 -0.34511474 -0.21642326 0.022384163
0.11202889 -0.0025620137 -0.2937211 -0.08031501 -0.077299476 -0.13549796 0.17410725 -0.0283034
0.78686357 -0.66096085 1.2345915 -0.49642226 -0.16780663 0.07198171 0.10409277 1.6444479
0.66127616 0.35426772 -0.12510936 -0.34111956 -1.1595436 0.45958483 -0.22126317 -1.6199814
0.045381155 0.0681591 -0.9885391 0.46437994 0.20891581 -2.963031 -0.21080202 -0.5658802
-0.11859535 0.6075744 0.5877927 0.07995388 -0.6552045 0.6723105 0.16867661 -0.17447656
-0.17706099 2.2427785 -0.26527742 -0.9225066 -0.060116976 -0.0035454435 -0.06320869 0.5499303
0.034508605 0.39979595 -0.022913208 -2.2965853 1.0814292 1.1052905 -3.6429815 0.27939343
0.08429985 -0.078868546 0.15612735 -1.2902638 0.10142901 1.4555752 0.42001122 -4.663395
-0.030096676 1.541225 0.07520966 -0.004782475 0.103561334 0.11634927 0.15503626 -0.09046138
0.7939866 1.9997153 -3.3767023 0.5096303 0.13163173 0.057769656 -0.06994327 -0.43572098
0.119401865 -1.8219064 -0.10239854 -1.9227201 0.3361022 0.45366597 0.48336157 0.7534029
0.10024965 0.15932459 0.16748491 0.9903405 -0.29067627 0.8893253 -0.08815843 -2.9891727
-0.04564618 -0.83127147 -2.465318 -0.025634652 -0.73536503 -0.4215524 -0.13159849 -0.16405429
00000000: 5ec8 383d 8876 993d 8d4f 92bd bdd0 f8bd
00000010: c0b3 80bd fafd 9d3d 26d4 ba3d ab69 24be
00000020: fb3a efbd f131 e53d aa25 1ebc b947 0dbe
00000030: 5cc4 51bc be60 2abe bc25 31be b95b 8abd
00000040: 295f 373d e3e6 11be 9d55 043e b9e6 ebbc
00000050: b9e0 5cbe 7480 aabd bde0 91bd 78c9 5b3c
00000060: bd3b 2dbe d150 d73d 92cc 1fbe a81f 7ebd
00000070: 861e 1d3d 8855 bf3c 8e67 593d 6b29 d93d
00000080: 99fc 0f3f ea13 cfbe 830e 933f 8bee dabf
00000090: 06a8 c6bd d626 273e 0649 4b3d ac8c 853f
000000a0: 6c4c 723d 83d9 97bf 9b57 50bd 7613 e93d
000000b0: 674e 103f be97 2d3f 2ac4 313f 2a39 293e
000000c0: 8939 cfbd b0d6 aa3d 1062 eabe 5b20 8d3e
000000d0: 5fbc 04bf e681 fc3f 4b78 fb3d 434a 5dbf
000000e0: dc6d febd 6966 0b3f 4b86 183f 4587 61bc
000000f0: 5ea6 7fbe 2b9c 093f 2a3e 0a3c 8265 9bbd
00000100: cb2d 01be 4358 c7bd 8982 a83c 8a82 00be
00000110: 0e01 1cbe fb6b c9bd 1498 0c3e 7562 2a3d
00000120: d770 873d ac84 e4bd e89f 01be 06e1 14be
00000130: d15c 3cbc d608 bd3b ca48 25be 8e78 4fbc
00000140: b67e f73c 8bcb 2b3d 16cb a2bd 2d27 babc
00000150: 5242 5fbe 479c 30bd acfe 943d e296 18be
00000160: af70 db3d c0fd 0fbe e14f a0bd 4faf e33d
00000170: 7745 0e3d 7768 b53d 3527 283e d9de 2f3e
00000180: a607 a6be 787d 75c0 790c 2e3f 6ec5 ac3c
00000190: 38dd 2e3e 9753 f6bd c13a 05bd 3883 49c0
000001a0: b320 97be 1e4a 533e 3f9d e93d 5dc0 14c0
000001b0: 880f 8ebf c6d8 0cbe 647f af3f 9ccb ce3e
000001c0: 62d8 d3bd d411 2dbd 358a 2abf 9cb7 483f
000001d0: c957 b0be 606e 13bf b3b3 9f3d a75d 16be
000001e0: 87be 633d a0c8 b33f c3c9 ae3e c1a3 c7bd
000001f0: 0c30 13bf 8973 b03e 1499 e43d 6164 7fbd
00000200: e4e2 a6bd a924 003d b8c7 4abe 5e01 fbbd
00000210: be22 51bd 29a3 e63d 805b 18be fa7d ebbc
00000220: e370 fd3c b701 99bd c2e2 d9bd b913 3bbe
00000230: db93 e23d 54da 4ebd 811b 1b3c 5c7b 04be
00000240: 897e 05be 5d3a 88bd eaa5 2dbe 84ff d83d
00000250: 1607 d3bd e1b2 b0be 0f9e 5dbe fe5e b73c
00000260: 676f e53d 75e7 27bb 9d62 96be 327c a4bd
00000270: 304f 9ebd fabf 0abe 2c49 323e 88dc e7bc
00000280: e46f 493f bb34 29bf 1807 9e3f 0f2b febe
00000290: 80d5 2bbe 266b 933d 972e d53d 457d d23f
000002a0: 6549 293f 9462 b53e ab1c 00be 39a7 aebe
000002b0: ed6b 94bf b44e eb3e d092 62be 8d5b cfbf
000002c0: 97e1 393d 0097 8b3d e610 7dbf 35c3 ed3e
000002d0: 07ee 553e 4da2 3dc0 7cdc 57be 86dd 10bf
000002e0: 1ee2 f2bd ff89 1b3f 9579 163f dcbe a33d
000002f0: 7bbb 27bf 8a1c 2c3f 90b9 2c3e fca9 32be
00000300: 7a4f 35be af89 0f40 71d2 87be 6429 6cbf
00000310: 383d 76bd ac5a 68bb 8f73 81bd 3bc8 0c3f
00000320: e558 0d3d 0eb2 cc3e 7bb4 bbbc 41fb 12c0
00000330: 466c 8a3f 297a 8d3f 9c26 69c0 a80c 8f3e
00000340: 66a5 ac3d d585 a1bd d9df 1f3e 5d27 a5bf
00000350: 03ba cf3d 4a50 ba3f b60b d73e 883a 95c0
00000360: 4e8d f6bc dc46 c53f 8607 9a3d 4fb6 9cbb
00000370: f717 d43d 8748 ee3d d3c1 1e3e d143 b9bd
00000380: b542 4b3f acf6 ff3f e41b 58c0 2277 023f
00000390: 78ca 063e e09f 6c3d 6b3e 8fbd d216 dfbe
000003a0: f788 f43d 3b34 e9bf 53b6 d1bd b11b f6bf
000003b0: 9615 ac3e e846 e83e 2b7b f73e 03df 403f
000003c0: b04f cd3d fc25 233e 2a81 2b3e f486 7d3f
000003d0: 85d3 94be d3aa 633f 688c b4bd 9b4e 3fc0
000003e0: 7df7 3abd 35ce 54bf c5c7 1dc0 c3ff d1bc
000003f0: e240 3cbf b7d5 d7be c1c1 06be d9fd 27be

layers.6.bias f4 [32]
-0.3132732 -0.74123967 -0.20561819 -0.018357845 -0.19423573 -1.7904426 0.10758124 -0.13600253
0.4476366 0.19807296 -0.9860864 -0.18609703 -0.8518243 -2.49461 0.47319588 -0.2002398
-0.43999785 -0.19775836 0.5538676 0.20956698 1.0618993 0.5894402 -0.05235487 -0.2679405
0.5208171 1.482576 -0.25769064 0.39034292 -0.12280352 -1.9561725 -0.07210352 -0.090376504
00000000: 5865 a0be e2c1 3dbf 938d 52be 3163 96bc
00000010: bbe5 46be 392d e5bf 8e53 dc3d 3f44 0bbe
00000020: a030 e53e a3d3 4a3e 2970 7cbf 3890 3ebe
00000030: 2811 5abf b1a7 1fc0 bb46 f23e aa0b 4dbe
00000040: 6647 e1be 2b81 4abe 44ca 0d3f ba98 563e
00000050: 51ec 873f 8ee5 163f 0f72 56bd 7f2f 89be
00000060: 4554 053f 0dc5 bd3f 07f0 83be 07db c73e
00000070: 6980 fbbd dc63 fabf 03ab 93bd 5117 b9bd

layers.8.weight f4 [32, 32]
0.12544742 0.87993824 0.036001407 0.55800384 -0.06608026 -0.1002678 0.2738735 0.92993605
-0.89798325 -0.7412005 1.3226806 -0.14896825 0.16522397 -1.932247 -0.8171165 0.032586195
-0.10252038 0.9912194 -2.840053 0.21135233 -1.1596315 -0.2619024 0.099154234 -0.13570033
0.74973124 -2.3370364 0.14769241 0.0569667 -0.056458786 0.3492166 0.130819 -0.3651381
-0.057961695 0.027629044 0.16813117 -0.282491 -0.03703513 -0.10894073 0.040161617 -0.15339276
-0.13982795 -0.14469127 0.124468304 0.07370666 -0.029230455 -0.07535279 -0.07742078 0.17625217
0.09844509 -0.26611602 0.046278328 -0.17728733 -0.20278516 -0.03942104 0.140429 0.14817777
-0.16657041 -0.039132066 -0.15988189 -0.010063565 0.11329798 -0.027453322 0.04180786 0.11492
0.13482668 0.25001138 -0.02782597 0.23152424 0.109651655 0.12940723 -0.19500764 0.5108224
-0.1262642 -0.08716015 0.3975865 0.15981033 0.37630752 -0.9285314 0.12543464 -0.0457264
0.91484827 0.39546442 0.39535156 0.022626998 0.40153643 0.6157618 0.05993427 0.053916875
-0.19967851 1.9834229 -0.06841322 0.28549373 0.07882055 -0.09878307 -0.009906437 1.0812426
0.045417454 0.7124807 -0.1326761 0.76100856 -0.14206761 0.976292 0.15948835 0.48922306
-1.5081441 0.6116577 -0.6670583 0.17244785 -0.20899075 -2.541401 -0.082409844 -0.1489422
-0.3268933 -2.8359356 -0.069858804 -0.16271694 -0.5401455 0.45997128 0.013001296 -0.06296656
-1.4975222 -0.8511253 -0.07700177 -0.5377492 -0.090076484 1.1744089 0.00848907 0.16111389
-0.0993304 0.049420122 -0.15590787 -0.06957102 0.15735313 0.047970504 -0.01601793 -0.27069563
-0.25905854 0.025866203 0.12513049 0.14598149 -0.17369835 0.14082368 0.06793424 -0.12883566
-0.04309939 0.004618088 -0.118122935 -0.11392174 -0.17031251 -0.18625186 -0.07786038 -0.028992333
-0.15890826 -0.8870831 -0.10577476 -0.16512668 0.06429514 0.16514793 0.013480648 0.0019653423
-0.012526024 -1.5306187 0.053568337 0.30762553 0.061898366 1.3921862 1.2409858 -1.2887226
1.4379861 0.010814153 -0.9454453 -0.013818308 0.8218408 -0.67286366 -0.62826955 -0.1710605
-1.2544091 -0.8224877 0.7008379 -1.5807074 0.46760815 0.49912807 -0.0053304667 0.095630005
-1.5000936 2.3247504 -0.108881354 -0.6184626 0.13035357 -1.1206815 0.0037293932 0.9655482
0.065276824 -2.0867667 0.04881195 0.31304944 0.026786016 -0.91218764 1.2886235 -0.08361324
-0.7387019 1.3371183 -1.1810267 0.1493767 -0.95624596 0.6414435 0.51991373 0.124339394
-2.225226 -1.4194157 0.18158704 -1.485617 -1.6634887 0.495045 -0.054065254 -0.04151261
-0.2150173 1.793324 0.007219954 -0.011746752 -0.09665123 -0.07691704 -0.036059875 -0.17050494
-0.006579818 -4.658908 0.03596613 -2.2924423 0.01185528 -1.7377044 1.2146674 -1.5097947
1.7831753 1.4283772 -0.43743214 0.13125224 -1.5082049 -1.5471114 0.5181177 -0.091611356
-2.1300082 -0.025261728 -1.0892515 -0.06670112 -0.07077763 0.33923596 -0.16773584 0.014238384
-6.1672378 0.7748465 -0.10900354 -0.5132457 0.057370123 -1.5808151 -0.0064019077 -0.22634926
00000000: 4a75 003e a243 613f 3676 133d 57d9 0e3f
00000010: 1655 87bd 3459 cdbd 2639 8c3e 4a10 6e3f
00000020: 3be2 65bf 51bf 3dbf 994d a93f 228b 18be
00000030: 7930 293e df53 f7bf 8c2e 51bf 1a79 053d
00000040: 34f6 d1bd 8ec0 7d3f 6ec3 35c0 bf6c 583e
00000050: ce6e 94bf 1218 86be 6011 cb3d 07f5 0abe
00000060: 63ee 3f3f 0192 15c0 ae3c 173e ea55 693d
00000070: 5441 67bd 85cc b23e 6af5 053e 62f3 babe
00000080: 3e69 6dbd 4e56 e23c 942a 2c3e a9a2 90be
00000090: 26b2 17bd 511c dfbd 8280 243d fe12 1dbe
000000a0: 0f2f 0fbe f329 14be 3de9 fe3d 84f3 963d
000000b0: b574 efbc 9052 9abd c98e 9ebd 737b 343e
000000c0: 949d c93d 5c40 88be 588e 3d3d cf8a 35be
000000d0: eaa6 4fbe f577 21bd 9fcc 0f3e eabb 173e
000000e0: 6f91 2abe f248 20bd 14b8 23be a7e1 24bc
000000f0: c508 e83d cae5 e0bc b83e 2b3d 2d5b eb3d
00000100: 0110 0a3e 7e01 803e 4af3 e3bc b114 6d3e
00000110: 0c91 e03d 5483 043e 15b0 47be 42c5 023f
00000120: 674b 01be 0581 b2bd 7590 cb3e 52a5 233e
00000130: 61ab c03e 3cb4 6dbf f071 003e 9b4b 3bbd
00000140: 7f33 6a3f 507a ca3e 856b ca3e 415c b93c
00000150: 2f96 cd3e 91a2 1d3f a37d 753d f1d7 5c3d
00000160: 8678 4cbe cde0 fd3f 3b1c 8cbd 3c2c 923e
00000170: ab6c a13d c74e cabd 9c4e 22bc 2866 8a3f
00000180: a707 3a3d 2365 363f 3edc 07be 75d1 423f
00000190: 2c7a 11be 46ee 793f ea50 233e 727b fa3e
000001a0: de0a c1bf 9995 1c3f 55c4 2abf 2b96 303e
000001b0: ac01 56be 50a6 22c0 7ec6 a8bd 4e84 18be
000001c0: 8f5e a7be f87f 35c0 2212 8fbd 459f 26be
000001d0: fa46 0abf 5b81 eb3e 6303 553c 9df4 80bd
000001e0: cfae bfbf 59e3 59bf 1bb3 9dbd eea9 09bf
000001f0: 057a b8bd 0853 963f be15 0b3c 0afb 243e
00000200: bd6d cbbd c16c 4a3d 50a6 1fbe 407b 8ebd
00000210: 2e21 213e b87c 443d 0938 83bc 9e98 8abe
00000220: 52a3 84be 5ce5 d33c 3522 003e 2c7c 153e
00000230: fbdd 31be 1534 103e 1b21 8b3d 7fed 03be
00000240: fc88 30bd 5453 973b 70ea f1bd cd4f e9bd
00000250: 6766 2ebe cfb8 3ebe 4375 9fbd 5481 edbc
00000260: d9b8 22be e117 63bf 70a0 d8bd f816 29be
00000270: 2cad 833d 8a1c 293e f0dd 5c3c f9cc 003b
00000280: f439 4dbc 50eb c3bf 796a 5b3d 1881 9d3e
00000290: 2489 7d3d 2833 b23f 9fd8 9e3f ddf4 a4bf
000002a0: ee0f b83f d82d 313c b408 72bf 2f66 62bc
000002b0: 2964 523f cb40 2cbf 46d6 20bf 7c2a 2fbe
000002c0: 7a90 a0bf 8e8e 52bf 1d6a 333f 9f54 cabf
000002d0: 566a ef3e b78d ff3e 32ab aebb aad9 c33d
000002e0: 1103 c0bf b6c8 1440 30fd debd 9153 1ebf
000002f0: 687b 053e 7e72 8fbf d668 743b 2b2e 773f
00000300: dbaf 853d 968d 05c0 0aef 473d 0448 a03e
00000310: 596e db3c 2185 69bf 9df1 a43f 6b3d abbd
00000320: 911b 3dbf b126 ab3f e22b 97bf 35f6 183e
00000330: 89cc 74bf a435 243f 1119 053f a7a5 fe3d
00000340: 1a6a 0ec0 6aaf b5bf f4f1 393e b328 bebf
00000350: 33ed d4bf 8a76 fd3e 8773 5dbd 2009 2abd
00000360: 7f2d 5cbe a48b e53f 5d95 ec3b 7375 40bc
00000370: 14f1 c5bd ae86 9dbd 85b3 13bd d998 2ebe
00000380: 849b d7bb c615 95c0 3951 133d 60b7 12c0
00000390: a63c 423c 196d debf 397a 9b3f f440 c1bf
000003a0: 173f e43f 10d5 b63f 1bf7 dfbe fd66 063e
000003b0: dc0c c1bf bf07 c6bf 5da3 043f bc9e bbbd
000003c0: 0e52 08c0 aff1 cebc 986c 8bbf 999a 88bd
000003d0: ddf3 90bd 56b0 ad3e f2c2 2bbe 1c48 693c
000003e0: 035a c5c0 575c 463f 3f3d dfbd 1264 03bf
000003f0: effc 6a3d 2658 cabf 18c7 d1bb 1ac8 67be

layers.8.bias f4 [32]
-0.81646734 -0.20505522 -3.3440447 -0.51562285 -0.49780497 -0.9046001 -0.5650089 -1.1283174
0.5248044 -0.17257392 -0.7896481 -0.9504492 -0.23856786 -0.23527887 -1.1713134 -0.17337689
-0.4812521 -1.2538617 1.2259685 -1.3245869e-05 -2.7762232 0.7358548 -0.39391902 -0.47957727
-0.29538196 -0.33713308 -0.48731983 0.11321273 -0.15590878 -0.26009384 0.15853569 -2.056764
00000000: 0104 51bf fff9 51be d404 56c0 dcff 03bf
00000010: 4be0 febe df93 67bf 6ca4 10bf b46c 90bf
00000020: 9559 063f 38b7 30be 6126 4abf a450 73bf
00000030: 224b 74be f2ec 70be 99ed 95bf b689 31be
00000040: ad66 f6be 8a7e a0bf 89ec 9c3f 933a 5eb7
00000050: a4ad 31c0 fb60 3c3f c1af c9be 278b f5be
00000060: 4e3c 97be b59c acbe fc81 f9be 13dc e73d
00000070: 8da6 1fbe 052b 85be 2e57 223e 05a2 03c0

layers.10.weight f4 [32, 32]
0.66184956 -0.14864612 -1.8678429 0.29799598 0.09924412 0.11797306 1.418828 -0.15976161
-0.2632456 -0.891383 -1.2313778 -1.9909569 -0.9410895 -0.051232383 0.30722 -0.7528992
1.4240966 -1.1031616 -0.10016835 -0.18285564 -1.904082 0.09121628 0.46870103 1.1370808
0.044465903 0.062532246 0.7882199 -0.3483709 -0.72359586 -0.15474178 0.06933672 -0.8858633
0.052651145 -0.1569998 -0.24481618 0.08212781 0.074915424 0.020579396 -0.029786887 -0.100989245
-0.22434583 -0.24831621 -0.05581752 -0.1775472 -0.03899049 -0.15646136 -0.109231606 -0.072789006
-0.11039835 0.06801721 -0.0012060201 0.07303681 0.038578257 -0.15411302 -0.07703249 0.018314676
0.055667546 -0.15000308 -0.006148614 -0.116775766 0.12577425 0.1441669 -0.11216302 -0.6879428
0.15485477 0.01495663 -0.44322997 0.31126463 -0.038310327 0.20504257 0.3242666 0.09256809
-0.5855398 0.10276736 0.5970451 -0.465656 -1.1435357 0.45005983 0.09580875 -1.0427045
0.38058206 0.009713373 -1.1050721 -0.21075128 -0.19654281 -1.078078 0.7833702 0.44487154
0.0071408236 1.0543215 0.59152675 -1.0020119 -0.3437018 -0.009115501 0.14568584 -0.3115508
-0.058848985 0.120343864 -0.24549212 0.005941792 0.092260145 -0.14442554 -0.02913082 -0.054483987
-0.17432238 -0.17443803 0.17637005 -0.04621133 0.01893995 -0.3596143 -0.110758066 -0.060352385
0.04382122 -0.034827013 -0.14894302 -0.09990559 0.023223065 0.05482345 0.0102032265 -0.06285393
0.044900607 -0.027898852 0.13169129 -0.10149574 0.09180923 0.14599657 -0.18087074 0.1655417
0.81974405 0.07552032 -2.1154602 -0.9205754 0.46001074 0.24321316 0.4139312 0.9808834
-1.114783 -1.3639246 0.15530217 -0.50613123 -0.38860977 -0.21563265 0.85772026 0.0016328886
2.1140037 -1.4269605 -0.70844233 -0.3413134 -0.66274625 -0.4748642 0.20389932 0.4133027
-0.18289694 -0.17251757 0.27150685 -0.5128835 -0.5000049 0.013216915 -0.44655445 -0.19136515
0.46396646 0.031723764 -1.119675 -0.042369094 -0.081410065 -0.5071279 -0.32347426 -0.34600344
0.2177451 0.0906349 0.009415755 -0.2678761 -0.14966938 0.068112254 -0.51374215 -0.1059031
0.2979393 0.046974994 -0.09318708 -0.034883477 -0.35959497 -0.299356 -0.1863231 -0.032174412
0.1563542 0.07970775 -1.0093808 -0.081025615 -0.18836963 0.10112476 -0.14807779 -0.2848077
1.1097382 0.08458309 -0.03417038 0.0807301 0.11913446 -0.22084096 -1.6197114 -0.51442766
-0.4137461 -1.3647522 -0.30455515 0.31077406 0.3485038 -0.28441617 0.95970196 -0.8250463
1.647065 -1.5403609 -0.15855244 -0.4544583 0.2082058 0.15709765 0.0758053 1.0081855
-0.05944777 -0.47303244 1.2268686 0.25266537 -0.22919452 -0.001256905 0.14473894 -0.2919384
-0.28540003 0.031679012 -0.779579 0.063990705 -0.059891075 0.13751782 -0.10693788 -0.16784377
-0.6422123 -0.08949624 0.034430392 -0.45051602 -0.03188217 -0.24330755 -0.089043 -0.21155083
0.053158678 -0.16681415 -0.6665398 0.0005039606 -0.18644804 -0.6228419 -0.023608135 0.12824744
-0.09251586 0.07125972 -0.017204696 -0.017918758 -0.13755378 0.10719635 -0.10411921 -0.598668
00000000: f96e 293f b036 18be 7a15 efbf ee92 983e
00000010: 8040 cb3d dc9b f13d 289c b53f 8c98 23be
00000020: 21c8 86be ad31 64bf ca9d 9dbf add7 febf
00000030: 3eeb 70bf 0cd9 51bd f14b 9d3e 01be 40bf
00000040: cc48 b63f 6634 8dbf 1025 cdbd 823e 3bbe
00000050: f5b8 f3bf 9acf ba3d 95f9 ef3e dd8b 913f
00000060: e121 363d e810 803d c8c8 493f ac5d b2be
00000070: 943d 39bf a174 1ebe 6900 8e3d f0c7 62bf
00000080: baa8 573d 8ec4 20be 18b1 7abe a032 a83d
00000090: 426d 993d 1f96 a83c a103 f4bc 73d3 cebd
000000a0: eaba 65be 9b46 7ebe e9a0 64bd efce 35be
000000b0: 7eb4 1fbd 6837 20be d2b4 dfbd 6712 95bd
000000c0: 8818 e2bd 9b4c 8b3d 5213 9eba 5394 953d
000000d0: 3c04 1e3d cecf 1dbe 36c3 9dbd a908 963c
000000e0: a703 643d 689a 19be 507a c9bb 2228 efbd
000000f0: f7ca 003e 7da0 133e bab5 e5bd 051d 30bf
00000100: 4092 1e3e a70c 753c 0aef e2be 145e 9f3e
00000110: 4aeb 1cbd aef6 513e 4606 a63e 5794 bd3d
00000120: f0e5 15bf b277 d23d f3d7 183f 776a eebe
00000130: 615f 92bf 3e6e e63e 6137 c43d 5777 85bf
00000140: a7db c23e d724 1f3c 0173 8dbf 2fcf 57be
00000150: 8542 49be 76fe 89bf f38a 483f 34c6 e33e
00000160: 92fd e93b 02f4 863f 4c6e 173f ed41 80bf
00000170: aff9 afbe 2f59 15bc ab2e 153e 9683 9fbe
00000180: a20b 71bd d876 f63d 4962 7bbe 5db3 c23b
00000190: e3f2 bc3d 4ae4 13be c2a3 eebc 9a2a 5fbd
000001a0: 9181 32be e29f 32be 5a9a 343e 1748 3dbd
000001b0: f427 9b3c 5e1f b8be 20d5 e2bd 1034 77bd
000001c0: e17d 333d c5a6 0ebd 8584 18be 4d9b ccbd
000001d0: 4c3e be3c 8e8e 603d 6f2b 273c 90b9 80bd
000001e0: b3e9 373d 228c e4bc 15da 063e 00dd cfbd
000001f0: 7a06 bc3d 2080 153e 2e36 39be c383 293e
00000200: bfda 513f 66aa 9a3d b363 07c0 d4aa 6bbf
00000210: 8786 eb3e df0c 793e caee d33e 2d1b 7b3f
00000220: 36b1 8ebf 1595 aebf 8807 1f3e d191 01bf
00000230: dcf7 c6be cece 5cbe 8e93 5b3f a606 d63a
00000240: d64b 0740 a4a6 b6bf 7a5c 35bf a1c0 aebe
00000250: bda9 29bf 6721 f3be fcca 503e 699c d33e
00000260: 5649 3bbe 72a8 30be f202 8b3e 554c 03bf
00000270: 5200 00bf c28b 583c c9a2 e4be 3af5 43be
00000280: 038d ed3e c7f0 013d 8351 8fbf 378b 2dbd
00000290: 52ba a6bd 22d3 01bf 6b9e a5be 5d27 b1be
000002a0: 92f8 5e3e ca9e b93d 8a44 1a3c 0e27 89be
000002b0: ee42 19be 707e 8b3d 9b84 03bf b9e3 d8bd
000002c0: 808b 983e da68 403d ded8 bebd fae1 0ebd
000002d0: d51c b8be 3145 99be 7ccb 3ebe 51c9 03bd
000002e0: 511b 203e d13d a33d 6433 81bf c2f0 a5bd
000002f0: f8e3 40be 801a cf3d b4a1 17be 51d2 91be
00000300: e70b 8e3f e639 ad3d 3ef6 0bbd d355 a53d
00000310: c5fc f33d 2224 62be b452 cfbf 88b1 03bf
00000320: 87d6 d3be 33b0 aebf a7ee 9bbe c71d 9f3e
00000330: 176f b23e ff9e 91be 07af 753f 3c36 53bf
00000340: 07d3 d23f 8c2a c5bf 925b 22be c2ae e8be
00000350: e733 553e 35de 203e cf3f 9b3d 390c 813f
00000360: 817f 73bd 4f31 f2be 080a 9d3f 5b5d 813e
00000370: f8b1 6abe bcbe a4ba 7236 143e f378 95be
00000380: f41f 92be dac1 013d 7d92 47bf 8f0d 833d
00000390: 5850 75bd 79d1 0c3e 3f02 dbbd 3ddf 2bbe
000003a0: 0668 24bf ce49 b7bd e206 0d3d 09aa e6be
000003b0: e196 02bd 9d25 79be 2d5c b6bd c8a0 58be
000003c0: eabc 593d 54d1 2abe 5aa2 2abf 391c 043a
000003d0: 3cec 3ebe 9172 1fbf d965 c1bc 4c53 033e
000003e0: f578 bdbd 9ef0 913d ddf0 8cbc 5cca 92bc
000003f0: e6da 0cbe c389 db3d 743c d5bd 4e42 19bf

layers.10.bias f4 [32]
-0.021881098 -0.19623677 0.84316784 -0.31179324 -0.13975684 -0.12591343 0.07543612 -0.30297303
-0.07378259 -0.107532404 -0.03286796 -0.23443054 -1.2295449 -0.08768363 -0.071051 -0.3092371
-0.28239152 0.10249521 -0.12680055 -0.33538347 -0.3836275 -0.18190102 -0.16210262 -0.07972527
-0.24220005 -0.15087831 -0.31552458 -0.49281007 -0.10693872 -0.84259236 -0.34550402 -0.062796034
00000000: fd3f b3bc 4bf2 48be d9d9 573f 5da3 9fbe
00000010: 6b1c 0fbe 73ef 00be 417e 9a3d 481f 9bbe
00000020: 541b 97bd f339 dcbd 8ea0 06bd 8f0e 70be
00000030: ba61 9dbf 7a93 b3bd 3083 91bd 5354 9ebe
00000040: 9f95 90be 02e9 d13d 01d8 01be 62b7 abbe
00000050: d36a c4be 4344 3abe 3bfe 25be 0147 a3bd
00000060: 4a03 78be d87f 1abe 708c a1be 9a51 fcbe
00000070: b002 dbbd 22b4 57bf e7e5 b0be 359b 80bd

layers.12.weight f4 [1, 32]
-0.850362 0.01913413 -0.37464243 0.0031045412 0.9351067 0.8741752 -0.4441768 0.017719612
0.5166828 0.014762271 1.1908454 -0.123225704 0.1578708 0.431618 -0.071624346 0.0004916554
5.0059312e-05 -1.1284143 0.036353126 0.3712124 0.32315573 -0.0078032613 -1.3650643 2.7235347e-07
-0.004232596 0.0008558462 0.8839585 1.0074255 -1.3292327 0.3842109 0.008606665 0.0053761774
00000000: 53b1 59bf 2ebf 9c3c 22d1 bfbe 8f75 4b3b
00000010: 2763 6f3f f2c9 5f3f 246b e3be b828 913c
00000020: 5345 043f 74dd 713c 9f6d 983f c25d fcbd
00000030: e2a8 213e 09fd dc3e c9af 92bd 6fe2 003a
00000040: c7f6 5138 e16f 90bf 04e7 143d 8d0f be3e
00000050: ab74 a53e 80b2 ffbb 6dba aebf fa37 9234
00000060: 97b1 8abb de5a 603a 1b4b 623f 52f3 803f
00000070: 4c24 aabf 4bb7 c43e f802 0d3c a52a b03b

exp_avg f4 [32, 6]
3.140282e-05 5.043006e-05 3.734773e-06 1.319312e-05 7.338558e-07 -4.0160838e-05 0.0 0.0
0.0 0.0 0.0 0.0 0.0004993817 0.000375315 0.00016760812 2.2279235e-05
5.1235747e-06 0.0006665877 0.007892474 0.0059886146 0.0011022099 0.0003460923 3.355214e-05 0.005302336
0.00042697156 0.0003121667 8.776765e-05 1.7102144e-05 2.6518046e-06 0.0003740089 0.0077772057 0.005776541
0.0016484156 0.0003686326 4.993046e-05 0.007490991 0.004080028 0.0031274077 0.0010585389 0.00019951016
3.245373e-05 0.004435698 -0.0029452848 -0.0022473694 -0.0005413705 -0.00015512083 -1.7538534e-05 -0.0023493203
0.0006282295 0.0005521454 4.9827333e-05 5.932331e-05 3.0631436e-06 6.799803e-05 0.0015524952 0.0012733983
0.00011593388 7.2371666e-05 3.695928e-06 0.0004742532 0.0 0.0 0.0 0.0
0.0 0.0 0.00048279957 0.0003580051 2.964876e-05 1.2464577e-05 6.4378196e-07 0.00020157815
-0.0027538508 -0.0023191634 -0.00027992297 -0.000117437325 -7.80111e-06 -0.0014923741 6e-45 6e-45
6e-45 6e-45 6e-45 -6e-45 0.006829529 0.0050484375 0.0016265216 0.0003301632
4.956109e-05 0.0070921876 0.0 0.0 0.0 0.0 0.0 0.0
6e-45 6e-45 6e-45 6e-45 6e-45 6e-45 0.0 0.0
0.0 0.0 0.0 0.0 -0.0007750858 -0.0006555877 -0.00020335063 -3.3327222e-05
-5.977145e-06 -0.0009290593 0.008602982 0.0067732036 0.0013674509 0.0004032722 4.148612e-05 0.006616213
0.0009953337 0.00070206687 0.00022343874 4.5788398e-05 6.810364e-06 0.0010076951 0.00063362595 0.00047293352
0.00012364205 3.478711e-05 3.818028e-06 0.000580901 3.3141234e-05 0.00019102565 4.9714836e-05 3.7666127e-06
1.2185263e-06 0.0003638941 0.0 0.0 0.0 0.0 0.0 0.0
-0.000925338 -0.00068237615 -0.00016690246 -2.9229795e-05 -4.7407243e-06 -0.0009175576 6e-45 6e-45
6e-45 6e-45 6e-45 6e-45 0.00226981 0.001838631 0.00057406985 0.00011166167
1.7452494e-05 0.0024781716 0.0 0.0 0.0 0.0 0.0 0.0
-0.0013866676 -0.0013075493 -0.00017117006 -7.035714e-05 -5.0066164e-06 -0.00077310234 0.0010614276 0.0012468536
0.00010470677 8.0224454e-05 4.0494497e-06 0.00029283256 -0.004218678 -0.0032529472 -0.0007804549 -0.00019247955
-2.3367636e-05 -0.003575406 -0.00025181734 -0.0001867625 -2.0532923e-05 -8.626699e-05 -4.5259253e-06 0.00031570173
00000000: 85b6 0338 dd84 5338 e9a2 7a36 0558 5d37
00000010: 30fe 4435 5f72 28b8 0000 0000 0000 0000
00000020: 0000 0000 0000 0000 0000 0000 0000 0000
00000030: f0e8 023a edc5 c439 f6bf 2f39 4be4 ba37
00000040: 2ceb ab36 f1bd 2e3a 6f4f 013c 243c c43b
00000050: 0778 903a b973 b539 56ba 0c38 38bf ad3b
00000060: 27db df39 4eaa a339 e60f b838 9376 8f37
00000070: a8f5 3136 a016 c439 eed7 fe3b 2349 bd3b
00000080: a60f d83a 0845 c139 6c6c 5138 fd76 f53b
00000090: c1b1 853b 32f5 4c3b acbe 8a3a 9a33 5139
000000a0: ed1e 0838 5559 913b ae05 41bb 9a48 13bb
000000b0: c2ea 0dba eea7 22b9 b71f 93b7 0ef7 19bb
000000c0: c5af 243a dabd 103a b1fd 5038 ebd1 7838
000000d0: 6890 4d36 2a9a 8e38 187d cb3a 28e8 a63a
000000e0: 8721 f338 3ec6 9738 8f07 7836 30a5 f839
000000f0: 0000 0000 0000 0000 0000 0000 0000 0000
00000100: 0000 0000 0000 0000 4320 fd39 a2b2 bb39
00000110: 3ab6 f837 f31e 5137 5cd0 2c35 b95e 5339
00000120: f379 34bb 1bfd 17bb a0c2 92b9 af48 f6b8
00000130: 83e1 02b7 c49b c3ba 0400 0000 0400 0000
00000140: 0400 0000 0400 0000 0400 0000 0400 0080
00000150: 3eca df3b 5d6d a53b 0231 d53a c119 ad39
00000160: d1df 4f38 9565 e83b 0000 0000 0000 0000
00000170: 0000 0000 0000 0000 0000 0000 0000 0000
00000180: 0400 0000 0400 0000 0400 0000 0400 0000
00000190: 0400 0000 0400 0000 0000 0000 0000 0000
000001a0: 0000 0000 0000 0000 0000 0000 0000 0000
000001b0: 212f 4bba bfdb 2bba 853a 55b9 d5c8 0bb8
000001c0: 498f c8b6 1d8c 73ba 86f3 0c3c c0f1 dd3b
000001d0: 0a3c b33a 476e d339 6201 2e38 d1cc d83b
000001e0: db75 823a e90a 383a e14a 6a39 eb0c 4038
000001f0: 9584 e436 a314 843a eb19 263a 10f4 f739
00000200: e9a5 0139 60e8 1138 9c1c 8036 9b47 183a
00000210: 2101 0b38 0f4e 4839 e684 5038 eac5 7c36
00000220: 3f8c a335 0ac9 be39 0000 0000 0000 0000
00000230: 0000 0000 0000 0000 0000 0000 0000 0000
00000240: 6292 72ba 7de1 32ba 8a02 2fb9 8232 f5b7
00000250: 8312 9fb6 4088 70ba 0400 0000 0400 0000
00000260: 0400 0000 0400 0000 0400 0000 0400 0000
00000270: 18c1 143b 38fe f03a 2d7d 163a e72b ea38
00000280: f266 9237 d268 223b 0000 0000 0000 0000
00000290: 0000 0000 0000 0000 0000 0000 0000 0000
000002a0: d8c0 b5ba 1362 abba 1d7c 33b9 b48c 93b8
000002b0: 82fe a7b6 05aa 4aba 9a1f 8b3a 776d a33a
000002c0: 0596 db38 2d3e a838 82e0 8736 5287 9939
000002d0: d63c 8abb 662f 55bb 7197 4cba 56d4 49b9
000002e0: 9e05 c4b7 5c51 6abb 5a06 84b9 add5 43b9
000002f0: 1e3e acb7 3dea b4b8 67dd 97b6 c584 a539

exp_avg_sq f4 [32, 6]
3.9410912e-07 1.1813429e-06 2.991901e-08 1.6241318e-08 5.993421e-11 7.8076664e-07 0.0 0.0
0.0 0.0 0.0 0.0 8.949693e-06 4.374026e-06 4.238166e-07 2.9469463e-08
3.9627987e-10 7.8502535e-06 0.0002613241 0.00021496606 5.8041246e-06 9.2951694e-07 5.437439e-09 0.0001550312
1.8253977e-05 9.859921e-06 7.5327034e-07 4.292458e-08 6.9217326e-10 1.4529616e-05 0.00024764758 0.00019106151
9.166139e-06 8.32517e-07 8.457147e-09 0.00021591444 9.392335e-05 6.4303924e-05 7.349614e-06 2.5877253e-07
6.7610633e-09 0.0001244341 6.48949e-05 5.408053e-05 2.1689746e-06 3.199282e-07 2.2576174e-09 4.6071513e-05
1.2031519e-05 8.06177e-06 9.6990405e-08 1.07949624e-07 2.7900804e-10 1.2361754e-06 4.5441506e-05 3.771879e-05
4.6572274e-07 2.3536232e-07 6.277998e-10 8.581054e-06 0.0 0.0 0.0 0.0
0.0 0.0 1.5200623e-05 1.3235815e-05 1.7372385e-07 1.2576895e-07 3.5163628e-10 3.5307994e-06
4.0250365e-05 3.1142048e-05 7.560553e-07 2.0663519e-07 8.917772e-10 1.6615326e-05 7e-43 7e-43
7e-43 7e-43 7e-43 7e-43 0.00017045325 0.00012159985 1.0043372e-05 5.088895e-07
9.246502e-09 0.00020240682 0.0 0.0 0.0 0.0 0.0 0.0
7e-43 7e-43 7e-43 7e-43 7e-43 7e-43 0.0 0.0
0.0 0.0 0.0 0.0 8.443253e-06 1.009299e-05 3.091887e-07 5.2153556e-08
3.2721148e-10 6.760725e-06 0.00031142583 0.0002683184 7.0016195e-06 1.1665053e-06 6.607037e-09 0.00018969044
1.0902239e-05 1.1158606e-05 6.679225e-07 3.6930714e-08 6.1554073e-10 1.3302126e-05 6.1319424e-06 5.759703e-06
1.9656063e-07 2.7749973e-08 1.9821929e-10 4.115755e-06 9.429318e-06 1.2885969e-05 3.1351183e-07 7.824208e-08
3.5108183e-10 7.396345e-06 0.0 0.0 0.0 0.0 0.0 0.0
2.0972968e-05 1.9759942e-05 5.209714e-07 9.9910515e-08 5.309834e-10 1.2437207e-05 7e-43 7e-43
7e-43 7e-43 7e-43 7e-43 3.251523e-05 2.38484e-05 2.1282742e-06 1.0075016e-07
1.9609596e-09 4.083506e-05 0.0 0.0 0.0 0.0 0.0 0.0
2.2218777e-05 1.5418416e-05 3.238969e-07 1.6127485e-07 5.496467e-10 6.2228946e-06 8.942578e-06 1.10544925e-05
1.08245786e-07 1.2431222e-07 3.3665729e-10 1.2111478e-06 5.447756e-05 4.3829925e-05 1.7358566e-06 2.3506121e-07
1.7520644e-09 3.8725586e-05 1.1919011e-06 2.5405134e-06 4.1624904e-08 7.191743e-08 2.1250106e-10 1.4373466e-06
00000000: f295 d334 a28e 9e35 4d80 0033 0983 8b32
00000010: f6cb 832e e095 5135 0000 0000 0000 0000
00000020: 0000 0000 0000 0000 0000 0000 0000 0000
00000030: a426 1637 99c4 9236 e988 e334 0924 fd32
00000040: 6fdb d92f 95b4 0337 5402 8939 8368 6139
00000050: 0dc1 c236 eb83 7935 38d4 ba31 df8f 2239
00000060: 1e20 9937 0a6c 2537 5834 4a35 135c 3833
00000070: 5d43 3e30 3ac4 7337 b2d6 8139 af57 4839
00000080: 44c8 1937 227a 5f35 ed4a 1132 1767 6239
00000090: b7f8 c438 e8da 8638 b49c f636 6ded 8a34
000000a0: f14e e831 867a 0239 2f18 8838 87d4 6238
000000b0: b38e 1136 99c2 ab34 6d24 1b31 e93c 4138
000000c0: fbda 4937 0a41 0737 0a49 d033 efd1 e733
000000d0: e462 992f aaea a535 7298 3e38 3e34 1e38
000000e0: 7208 fa34 e7b7 7c34 7c91 2c30 59f7 0f37
000000f0: 0000 0000 0000 0000 0000 0000 0000 0000
00000100: 0000 0000 0000 0000 2e06 7f37 640f 5e37
00000110: d988 3a34 1b0b 0734 6850 c12f acf2 6c36
00000120: 80d2 2838 859e 0238 b9f3 4a35 73df 5d34
00000130: 3e21 7530 2461 8b37 f401 0000 f401 0000
00000140: f401 0000 f401 0000 f401 0000 f401 0000
00000150: b2bb 3239 6c03 ff38 f47f 2837 9f9a 0835
00000160: 8cda 1e32 2b3d 5439 0000 0000 0000 0000
00000170: 0000 0000 0000 0000 0000 0000 0000 0000
00000180: f401 0000 f401 0000 f401 0000 f401 0000
00000190: f401 0000 f401 0000 0000 0000 0000 0000
000001a0: 0000 0000 0000 0000 0000 0000 0000 0000
000001b0: 7fa7 0d37 1055 2937 92fe a534 71ff 5f33
000001c0: ece2 b32f 2fda e236 de46 a339 16ad 8c39
000001d0: 74ef ea36 d190 9c35 1d04 e331 a4e7 4639
000001e0: c3e8 3637 d935 3b37 494b 3335 c09d 1e33
000001f0: d432 2930 322c 5f37 fcc0 cd36 7943 c136
00000200: 2d0e 5334 d65e ee32 c5f1 592f 111a 8a36
00000210: 9d32 1e37 d130 5837 bd50 a834 0a06 a833
00000220: 6002 c12f 1f2e f836 0000 0000 0000 0000
00000230: 0000 0000 0000 0000 0000 0000 0000 0000
00000240: 1bef af37 27c2 a537 e2d8 0b35 638e d633
00000250: a3f4 1130 66a9 5037 f401 0000 f401 0000
00000260: f401 0000 f401 0000 f401 0000 f401 0000
00000270: f660 0838 0d0e c837 79d3 0e36 fc5b d833
00000280: 91c1 0631 5046 2b38 0000 0000 0000 0000
00000290: 0000 0000 0000 0000 0000 0000 0000 0000
000002a0: 7662 ba37 cc56 8137 0de4 ad34 e52a 2d34
000002b0: f315 1730 42ce d036 1408 1637 af76 3937
000002c0: c074 e833 af7a 0534 4d14 b92f b98e a235
000002d0: d67e 6438 06d6 3738 94fb e835 2265 7c34
000002e0: 49cd f030 486d 2238 69f9 9f35 b07d 2a36
000002f0: 11c7 3233 0671 9a33 bba5 692f daea c035
